.dart_tool/chrome-device/Default/optimization_guide_prediction_model_downloads/be968545-b7db-4ad2-a443-d3851737b83a/model.tflite (tflite, 410364 bytes, 166 tensors)

context_transformer_0/bottleneck_input/norm/add f4 [32]
00000000: f4c7 813d 70e7 353d 1c48 073d 19a7 833d
00000010: 7b8d f9bb fc68 373c b60e 72bc bc38 0e3d
00000020: c427 10bd 98e9 09be b853 a63b 2a0e 4dbc
00000030: 54d4 82bd 591c dabd 922b 2b3d a22b a8bd
00000040: f2c8 a03b 0030 983b 32f2 9ebd 504c 093e
00000050: 0654 90bc c6e2 493c d9cf 173d 6ce4 2bbe
00000060: 5f3d 80bd 8f1f 633d 86a6 65bd 8f37 213c
00000070: 4186 90bb 298e 70bd d801 f73c b264 0ebc
0.06336966 0.04441017 0.033027753 0.06428356 -0.0076157427 0.011194464 -0.014774015 0.034722075
-0.035194173 -0.13468015 0.005075898 -0.012515584 -0.063881546 -0.10649938 0.0417896 -0.08211447
0.004906767 0.004644394 -0.07761039 0.13408017 -0.01761819 0.012322133 0.037063453 -0.16786355
-0.062617056 0.05545002 -0.056067012 0.009839906 -0.0044105356 -0.058729324 0.030152246 -0.008691

context_transformer_1/bottleneck_input/norm/add f4 [32]
00000000: ccf4 753c e01e 24bd 0508 d53c 6f09 bd3c
00000010: 9438 9bbe 4e0a 48bd 3694 9f3e b802 a73c
00000020: 33a2 0f3d be6b 463e 7ad5 1abe 988c f7bc
00000030: 0ee1 7ebd 596f ddbd f5ad ddbd 4ca3 533d
00000040: 3b99 223e 2796 403e 76d2 e2bd 5878 01bb
00000050: 2458 90bd 2823 833d 0a1e a43d bac1 bd3b
00000060: be54 8b3d b309 4e3d f5eb 1e3d 0ccf c8bd
00000070: cab5 04bd dbeb c4bd 9090 c4bb c28c 793e
0.015011977 -0.040068507 0.0260048 0.023075787 -0.30316603 -0.048837952 0.31167763 0.020387039
0.035066795 0.19377038 -0.15120497 -0.030218408 -0.062226348 -0.108122535 -0.10824195 0.051669404
0.15878765 0.18807279 -0.110752985 -0.0019755568 -0.070480615 0.0640319 0.08013542 0.0057909163
0.06803273 0.05030222 0.038799245 -0.09805116 -0.03239993 -0.09615298 -0.0059986785 0.24370101

mention_transformer_0/bottleneck_input/norm/add f4 [32]
00000000: 61c8 99bd 009f d63a 4a44 aabd 8ac3 a83b
00000010: d9d2 3d3e 5e62 a7bc c6b8 563d a8ce 8ebe
00000020: d8ab cf3d acf1 30be f255 a33d c62f ab3a
00000030: f8d1 363e a7d3 fdbd 3d09 b33d e40b 833d
00000040: 6069 9c3e 34ea 813e 7c89 7f3d 92b0 b9bd
00000050: 9c69 8cbd d865 a6bd cd7c 0bbe 83eb bebd
00000060: c81e 1ebe b07e 47be 0cbf 473e 427e 753d
00000070: d020 a13d 3900 85bd 252d de3c 8152 0cbd
-0.07508922 0.001637429 -0.08313806 0.005150263 0.18537463 -0.020432647 0.052422307 -0.2789204
0.101401985 -0.1727969 0.07975377 0.0013060502 0.17853534 -0.12393885 0.087419964 0.06398752
0.30549145 0.25373995 0.062386975 -0.09066881 -0.06856081 -0.08124894 -0.13621826 -0.09322264
-0.1544143 -0.19481921 0.19506472 0.059934862 0.078675866 -0.06494183 0.027121136 -0.03425837

mention_transformer_1/bottleneck_input/norm/add f4 [32]
00000000: 20bd 043b 6509 3b3e 00f3 19bd 7696 4ebe
00000010: aeef 9ebe eab9 7cbe e1cf 843e 6c86 183e
00000020: 5e43 41be 1717 42be 87e7 003e af83 ffbd
00000030: f4c7 a73d 4b8b 7fbe b750 393d 047b 76bc
00000040: 8fd2 263d 6b46 fdbd 82e3 43be 9e07 413e
00000050: 922b 41bd 868d a83e aa98 613d 6352 c3bd
00000060: e82f a43e 0069 8fbd d5f3 0e3e 0444 0bbe
00000070: 1a0e fbbd c2b1 51be d23f 3b3e 0e0e fcbd
0.002025433 0.18265302 -0.03758526 -0.20174584 -0.31042236 -0.24680296 0.2593985 0.14895028
-0.18873355 -0.1895412 0.1258832 -0.124762885 0.08192435 -0.2495548 0.04524299 -0.015043978
0.040728148 -0.12366947 -0.19129756 0.18850562 -0.047160693 0.32920474 0.055077232 -0.095371984
0.320678 -0.07002449 0.13960202 -0.13600165 -0.12258549 -0.20477965 0.18286064 -0.12307368

context_transformer_0/attention/value/add;context_transformer_0/attention/value/einsum/Einsum;context_transformer_0/attention/value/add/ReadVariableOp/resource f4 [32]
00000000: 16f7 a9bc e701 3abd ef1e a2bc f65a 57bc
00000010: 2daf 7d3c e4da 843d e765 94bd c79b 47bd
00000020: 7bd0 6d3d 6b45 8cbb 18f1 1c3d 297a e1bb
00000030: c3cd a93c a65f 623c fd9b 74bc 41ca 24bc
00000040: 92f3 1abc 1cd6 e2bd 79c4 3dbd bed3 293d
00000050: 8bd5 4abc b935 2b3c 5aad 1abd 8e2a 05bd
00000060: fab9 ba39 f197 0f3d 4e68 7c3c fc94 963d
00000070: 908d 16bc 3d27 853c e6cf 82bc 6ab1 8f3c
-0.020747703 -0.04541197 -0.01979014 -0.013144245 0.01548366 0.064870626 -0.07245999 -0.048732545
0.05806015 -0.004280736 0.038315862 -0.0068810177 0.020727998 0.01381675 -0.014929769 -0.010057987
-0.009457486 -0.11075994 -0.04632995 0.0414617 -0.012380014 0.01044982 -0.037762977 -0.032511286
0.00035615248 0.035057012 0.015405728 0.07352635 -0.009189025 0.016254062 -0.015968274 0.017540652

context_transformer_0/bottleneck_input/norm/mul f4 [32, 32]
00000000: 036c 523e 9172 e63d 0a4f 023d 3afe ae3c
00000010: 96fc a0be b4af d2be 0999 0cbf d6ab 3a3e
00000020: 3f71 59be d3c5 debe b615 cc3c d223 6ebe
00000030: cf7a 263e 5f77 f73c 648a 4bbe 90fb dcbe
00000040: e878 2d3d 553f f03d 8f78 38bf 2e6e 35bd
00000050: 080a 93bd 06a8 46be f40c 80be 2e86 d93d
00000060: 0a1d 78bd 801c 903e 8434 f13e c362 6b3e
00000070: 3357 bebc a506 bbbe ad06 5dbe 8fa0 abbc
00000080: 4fa1 35be 43d5 893e 6749 90bd 52f4 cfbd
00000090: ca54 503e 063c e73b a864 423e 996d 0f3e
000000a0: 4daf 0f3f 9bb2 e03e 385e 32be 2238 b33e
000000b0: 4920 5e3d c4f9 efbd ca28 693e 73ca a73e
000000c0: 3eb0 65bd 0ac5 99bc 625d 813c e0e6 e0bd
000000d0: a750 39be d9be 233d 0183 b63d 4435 a9bd
000000e0: d4e2 563d 3777 b53d d39c a13d 4256 3cbd
000000f0: be5e a9be b02f 703c 2c0a cabe 2f81 ca3d
00000100: 40bd 26bd 5196 08be 744d 46be 448e f03e
00000110: 7897 fdbd 6919 b3be 724d afbe 87c9 e1be
00000120: 1265 eb3d 7baa 0f3e 5f30 8abd 9b20 9fbe
00000130: a846 02bb 45c2 32bc 53a3 12bd 0e84 1d3d
00000140: 18b1 4d3e 2a30 ec3d cdaf f53d 833a 3d3d
00000150: 7dbc 92bd 8232 f2bd c5d1 1e3f a7f2 dfbd
00000160: d47c 4bbe c3af 13be b581 87bd df1f 0cbe
00000170: 0681 79be 6715 803d 2d38 e63d a2e4 adbe
00000180: 4a8b 32be bc95 273e b02e be3b f701 9bbc
00000190: 4331 8c3e 29ce 353e dd13 503b 2a10 ea3d
000001a0: ee6f 73bd 470a 413d 6fc4 9e3e 42c6 49be
000001b0: 73b6 61be f454 c4be 3feb be3c 62fc e9bd
000001c0: 1c1f 723d b543 323e 2de5 9bbb ee78 503e
000001d0: 2839 c4bd 4b09 0fbd 3b72 143e 8a30 55be
000001e0: f52c 5abc afe0 81bc 3254 c13b 9160 293c
000001f0: 5825 d43c 4c79 2f3d 55d9 f33e 77c1 12be
00000200: 6bb3 69bd 5752 b13d 5b57 ecbe c97a 32be
00000210: 9f54 803c 7f66 33bb f0fd adbe 1e02 63be
00000220: 61bf da3e 6df7 643e bb67 0b3f 9928 433e
00000230: 6a66 d93e afd0 d3bd f5b8 c83d b789 fbbe
00000240: d29e 8d3e c99c 973e 5509 57be 3816 1f3d
00000250: d225 903e 2071 92be 9017 fe3e 7997 183f
00000260: b8dd 1a3f 5cbc e83e cbfa 24bd 2a14 52be
00000270: b789 a4bc 2ddc 063e 27f5 d23b 4947 b83d
00000280: c68b 803e 4393 d93b e055 2c3e b133 8bbe
00000290: 1b7d a13e 627c 59be 9a51 a53d 3787 033d
000002a0: e05f 78bd a228 f5bd d7a5 9dbb cfa6 ef3d
000002b0: e1f8 47bd e257 91be 1811 69be 0551 573d
000002c0: 6888 41be ca79 d0be c37d 6abe 959c 523e
000002d0: ae70 cf3e 958a f9bd b790 97bd a34e a73e
000002e0: a6a2 90be b67c 3abe 5af8 4b3d 0149 14bd
000002f0: 6682 5c3e 78e4 953e eddb 14bb 88b3 dcbe
00000300: b2a8 b23d e8ba 053c 159a 123e 1e13 68be
00000310: d999 9b3e 8adc dd3d 332c c6bd 6ab4 b93b
00000320: 6d45 013e b041 42be 288c 973d 8fc5 11be
00000330: 08f4 4b3e a46f 18be b819 0e3e 2d21 4cbe
00000340: 500f d23d 2ef6 673e 96bb 8c3e 114d 673d
00000350: d97c c7bd f85f 65be eb51 12bd 8706 633e
00000360: 568e 963e 6b77 263e 7871 223e 1089 1f3e
00000370: 2b0c 0bbe b31a d03b 59b7 2d3e 6184 303e
00000380: bb1a cabc d0e9 8a3e 224b 243e 278e 2ebe
00000390: 7ec7 983d dd4e cebe 5368 34bd ebbe 7cbd
000003a0: 3915 71bb f9ee 55be d627 b43c 7b3e 403e
000003b0: 69dc f73d 02d6 fb3d 2959 2d3e 5cff f13e
000003c0: baf6 13be 94a7 90bd b82c 403d 8d0a 843d
000003d0: 7d6a 64bd c4f1 613e f6a9 6abe 5d29 503c
000003e0: c412 a23e 0330 663e f352 7ebc baf9 40be
000003f0: b987 4abc d073 61be 114f 0d3d 88e0 6c3e
0.20549016 0.112523206 0.03181366 0.021361459 -0.31442708 -0.41149676 -0.54921013 0.18229613
-0.21234606 -0.43510303 0.024912696 -0.23255852 0.16257785 0.030208288 -0.1987701 -0.43160677
0.042351633 0.117308296 -0.7205896 -0.04429453 -0.07179648 -0.19400033 -0.25009882 0.10621296
-0.06057457 0.28146744 0.4711038 0.22986893 -0.02323494 -0.36528507 -0.21584578 -0.020950584
-0.17737316 0.26920518 -0.070452504 -0.10154022 0.20344844 0.007056716 0.1898371 0.14006652
0.5612686 0.43886265 -0.17418754 0.35003763 0.05423001 -0.11717561 0.22769466 0.32771644
-0.05607628 -0.018770713 0.015791599 -0.10981536 -0.18097173 0.03997693 0.08911706 -0.08262113
0.052462414 0.08860629 0.0789124 -0.0459807 -0.33080095 0.014659807 -0.39460886 0.09887921
-0.040707827 -0.13338591 -0.19365484 0.4698354 -0.12382406 -0.34980324 -0.34238774 -0.44099066
0.11493887 0.14029877 -0.06747507 -0.31079563 -0.001987854 -0.010910575 -0.03580029 0.038456015
0.20087087 0.11532624 0.11996422 0.04619838 -0.071648575 -0.1182604 0.6203883 -0.10934954
-0.19871837 -0.14422517 -0.066165365 -0.13684033 -0.24365625 0.06254082 0.112411834 -0.33963495
-0.17435947 0.16365713 0.0058039054 -0.018921835 0.27381334 0.17754425 0.003175012 0.11428864
-0.059432916 0.047128942 0.31009242 -0.19704536 -0.22042255 -0.38346064 0.023305533 -0.11425091
0.0591117 0.1740864 -0.0047575445 0.20358631 -0.09581214 -0.03492097 0.144967 -0.20819297
-0.013316383 -0.015854208 0.0058999294 0.010337965 0.025896713 0.042840287 0.4762675 -0.14331613
-0.057055872 0.08658283 -0.46160397 -0.17429651 0.01566535 -0.0027374325 -0.339828 -0.22168776
0.42724136 0.2236001 0.54455155 0.19058456 0.42460948 -0.103425376 0.09800903 -0.49128506
0.27660233 0.29611805 -0.20999654 0.03883955 0.28153855 -0.28601933 0.49627352 0.5960613
0.60494566 0.45456207 -0.040278237 -0.20515504 -0.020085199 0.13169928 0.006437916 0.089979716
0.2510664 0.0066398694 0.16829634 -0.27187875 0.3154076 -0.21238855 0.08072205 0.032111373
-0.06063831 -0.11970641 -0.0048110294 0.11701738 -0.048821334 -0.28387362 -0.22760427 0.0525675
-0.18899691 -0.40717918 -0.22899537 0.20567544 0.40515655 -0.121846355 -0.07400649 0.32677183
-0.2824909 -0.18211636 0.049797393 -0.036202434 0.21534118 0.2927587 -0.0022714094 -0.4310572
0.08723582 0.008162238 0.1431659 -0.22663543 0.30390814 0.1083308 -0.09676399 0.005667259
0.1262414 -0.1897037 0.073997796 -0.14235519 0.1991731 -0.14886338 0.13876998 -0.1993453
0.10256827 0.22652504 0.27486867 0.05646998 -0.0974061 -0.2239989 -0.035722654 0.22170459
0.2940547 0.16256492 0.15863597 0.15579629 -0.1357886 0.006350839 0.16964473 0.17237999
-0.02467095 0.2713151 0.16044286 -0.17046414 0.07459925 -0.40294543 -0.044044804 -0.06170551
-0.0036786331 -0.20891942 0.021991652 0.18773834 0.12102587 0.12296678 0.16928543 0.47265136
-0.14449587 -0.07063213 0.046917647 0.06447325 -0.055765618 0.22064883 -0.22916397 0.012705174
0.31654942 0.22479253 -0.015522706 -0.18845263 -0.01236146 -0.22016835 0.03449923 0.23132527

context_transformer_0/kq_shared_bottleneck/norm/mul;context_transformer_0/kq_shared_bottleneck/norm/add;context_transformer_0/attention/key/einsum/Einsum;context_transformer_0/attention/key/add;context_transformer_0/attention/value/einsum/Einsum;context_transformer_0/attention/key/add/ReadVariableOp/resource f4 [32]
00000000: adc2 7d3e a49a 5c3c 228a 4fbd 3b59 07be
00000010: 7e7d 0dbe 28ad 53be 0065 d9bb e663 463e
00000020: 6e9e 2a3e d9f9 953e 1781 ce3d 3ba2 7c3e
00000030: a8e0 babd a513 c83d 5ac8 90be 1c55 063e
00000040: b652 03be b528 b03c 1d16 56be 4270 4b3b
00000050: c606 cdbd 481d 1c3e d031 f23c 8d26 023e
00000060: 86d8 8e3e 72b4 673e 1ab4 ab3e 427e 6abe
00000070: 4ab4 a1be 44d3 31be 3173 cb3e 136e 8d3e
0.24781294 0.013464604 -0.050668843 -0.13217632 -0.13817403 -0.20671523 -0.0066343546 0.19374046
0.16661999 0.2929218 0.10083216 0.24671261 -0.09124881 0.09769372 -0.28277856 0.13118404
-0.1282452 0.021503786 -0.20906873 0.0031042253 -0.100110576 0.15245545 0.029564768 0.12710018
0.2789957 0.22627428 0.33535844 -0.22899726 -0.31582862 -0.17365748 0.39736322 0.27623042

context_transformer_0/kq_shared_bottleneck/norm/mul;context_transformer_0/kq_shared_bottleneck/norm/add;context_transformer_0/attention/key/einsum/Einsum;context_transformer_0/attention/key/add;context_transformer_0/attention/value/einsum/Einsum;context_transformer_0/attention/key/add/ReadVariableOp/resource1 f4 [32, 32]
00000000: 504f a6be acf4 be3e e73e 9c3d 2175 933d
00000010: 3bab 4fbe eb06 7fbe 30bd 3dbc f1f1 b0be
00000020: 9500 863e 0be8 f13d 68ef 77be e39d 343e
00000030: 5aef 223d 5a89 223d 87d7 73bd 70a7 afbe
00000040: 224f 5e3e 8dcd 17bf 18e3 913a 5285 ba3e
00000050: 9fad 87be bf66 3e3e b06f fcbd 8509 b73e
00000060: 76fc 1ebe db12 153e 336a 583e 0db6 7bbe
00000070: 8cd7 733d 5e94 1c3e a568 d63e f179 193e
00000080: 0f7d d1bd 97fd 083d 75da 36be 57c8 543e
00000090: ea16 6cbe e5bd 87be fe99 0b3e 4571 943d
000000a0: c28e 263e 7605 cd3e 006c 51be b71a 653d
000000b0: d5d4 bebe 2434 663e ea2d 5abe 93aa 5dbe
000000c0: 094b a0bd 0ed7 6a3d c07e 52be 3db4 aabd
000000d0: e8a5 353d 1f3f 83be ad78 173d 7a98 66bd
000000e0: 34ba e63d ecae f4bd f793 233e 3307 473e
000000f0: 74f5 053e d22c 92bd 0830 edbe a403 813d
00000100: 3277 313e 011c 8d3d 6659 2e3e ede2 8fbe
00000110: d926 063e d159 653e 97ad 38be 7a22 7dbd
00000120: fa54 c8bd eacb 01bf b5a8 953e 5b41 653d
00000130: 75ad c23e 53e2 06be b1e0 183e c588 e83d
00000140: 4373 0fbd f1b5 0ebe 423b 6b3e 556a 3b3d
00000150: e2cf 13be 7656 a03e 0b7d 803d 32b6 b63d
00000160: fce5 aabd 4277 293e d553 0dbe 33af 7cbe
00000170: 9492 35be 018b 593d f7a4 a93e 55e8 2abe
00000180: f165 583e 6ac6 c5be e8e2 ccbc a20d 983d
00000190: cf7b 6d3e 51d6 ab3e 701c e93d 7438 d53e
000001a0: 6abd a5be 9478 0abe 704d 233e e54c 52be
000001b0: bd4e fdbd d727 db3d a843 6b3e d881 6c3e
000001c0: e8c1 8abe 75cf 423f 8dc5 c7bd 1d05 06bf
000001d0: 7367 573e ddc6 84be 8bb0 063e f440 b6be
000001e0: 04c9 843e 686f 0abe ae2d 78be 9701 083e
000001f0: b5b3 89be 18b4 c7bd 0d44 11bf 04f9 b0bc
00000200: af08 943e 1342 6e3d 7fa2 6f3e 5d7e c8be
00000210: f0dc 4f3e 20ba 5e3e 82f7 acbe e644 5abd
00000220: 484e 00be d0a2 ddbe 6a23 b53e 9149 8e3c
00000230: 4fe9 c13e 75db 62be ec36 f33d eb06 9d3e
00000240: 9811 3ebc 5250 76be ed25 8f3e d601 333e
00000250: fbcf 01be a4f1 973e afee 1a3d 44a0 db3c
00000260: f235 10be b9e0 ee3d 53f0 b4bd 9629 32bd
00000270: 14e6 c2bd 95df 08bd 46d5 c73e 29a6 6bbe
00000280: 46aa b63e 60bb ccbe 79b2 ffbc 8675 68bd
00000290: 6aa2 e33d 41d4 be3d 7362 34be 85db 5c3e
000002a0: 2ff0 88be 4ba7 b73d 41dc 493e 7bb3 a6bd
000002b0: 2f1b 0abe ed91 25bd f201 80bc 13ee 833e
000002c0: 4dbf 4abe 7c0f da3e 7067 213d 983f 27be
000002d0: b418 783e 6400 1bbe bc78 de3d f805 babe
000002e0: 8623 223e d0b2 43be 054b 38bd 055a 9a3e
000002f0: 5f05 223c c5c6 11be 0164 06bf 2143 35be
00000300: a98b 10be 1913 893c e052 4cbe 815f 593e
00000310: b24c f7bd 4a89 65be c59c 6c3e 0cca ca3c
00000320: 6324 313e 83e6 e63e 07a5 85be 4817 fd3b
00000330: 4c92 a3be 1a58 173e 0751 8ebe fc75 2abe
00000340: e42b 263d 563b 55bd 7329 45be ba4b acbc
00000350: d590 7c3d 20a7 63be 4b57 6abd 5303 76bd
00000360: 3e4e 243d 8aa2 fbbd b717 453e 987c 3b3e
00000370: 2264 903e a855 c6bb f891 31be 6b7c 3c3d
00000380: b98b cbbd d750 b63d 6ce7 ed3d 7402 ff3d
00000390: cf0b 2e3d bc1e cc3e 1124 6c3e d630 9e3d
000003a0: 5c74 9bbc a6ab 01bf b2e9 063d 526b f23c
000003b0: 8a03 c63e 1334 23bd 6908 eb3e e735 12be
000003c0: ee12 46bd da89 933e 1360 3339 0b19 c4be
000003d0: 2224 c6bd 9e42 343e 9511 32bc 9140 143e
000003e0: 5980 573d 51d1 423e a017 91be fef8 09bf
000003f0: b3b8 ddbe 7dad 3a3e a5a6 e33d e00e 1c3e
-0.32482386 0.37296045 0.07629185 0.07200075 -0.20280163 -0.24904983 -0.01158075 -0.34559587
0.2617232 0.11811837 -0.2421242 0.17638354 0.039779045 0.03968177 -0.059531715 -0.34307432
0.21709874 -0.5929802 0.0011130301 0.3642984 -0.2649965 0.18593882 -0.1232599 0.3574945
-0.15525994 0.14557974 0.21134262 -0.24581166 0.059531733 0.15290973 0.41876712 0.14987923
-0.10228931 0.033444967 -0.17856772 0.20779549 -0.23055616 -0.26512066 0.13632962 0.07248167
0.16265395 0.4004323 -0.20451355 0.05593368 -0.37271753 0.22480828 -0.21306577 -0.216471
-0.07826812 0.057334 -0.20556164 -0.08335159 0.044347674 -0.25634095 0.03698032 -0.056297757
0.11265984 -0.11947426 0.15974413 0.1943634 0.13081914 -0.07137455 -0.46325707 0.062995225
0.17330626 0.06890107 0.1702629 -0.28102818 0.13100757 0.22397543 -0.1803497 -0.061800458
-0.09781833 -0.50701773 0.29230276 0.05597053 0.38022962 -0.13172273 0.14929463 0.11354212
-0.03502203 -0.13936593 0.22971824 0.045755703 -0.1443477 0.31315964 0.0627385 0.0892147
-0.08344647 0.165494 -0.1380151 -0.24676208 -0.17731696 0.05311108 0.3313367 -0.1669019
0.21132638 -0.3862794 -0.025010541 0.07424475 0.2319176 0.33561948 0.11382377 0.41644633
-0.32371074 -0.1352256 0.15947509 -0.20537145 -0.12368534 0.10700958 0.22975028 0.23096406
-0.27101064 0.76097804 -0.09754477 -0.5235155 0.21035556 -0.2593297 0.13153283 -0.3559643
0.25934613 -0.1351906 -0.24236175 0.13281856 -0.26894918 -0.09751147 -0.5674446 -0.021603115
0.28912875 0.058168482 0.23401831 -0.39158908 0.20299125 0.21750689 -0.33782583 -0.053288363
-0.12529862 -0.4328828 0.3537858 0.017369064 0.37873313 -0.22154029 0.1187571 0.3066934
-0.011600874 -0.24054077 0.27958623 0.17481169 -0.12676995 0.29676545 0.037825283 0.026809819
-0.14083079 0.11663956 -0.08834901 -0.04349669 -0.0951654 -0.03341635 0.39029902 -0.23012604
0.35676783 -0.39986706 -0.031213032 -0.056752704 0.111149624 0.09317828 -0.1761568 0.21568115
-0.26745746 0.089674555 0.19712926 -0.08139702 -0.13486932 -0.04042237 -0.015625928 0.25767574
-0.19799538 0.4258994 0.039405286 -0.16332853 0.24228173 -0.15136868 0.10862872 -0.3633268
0.15833864 -0.1911118 -0.04499342 0.30146804 0.009888976 -0.14235981 -0.52496344 -0.17701389
-0.14115776 0.01673274 -0.1995349 0.21227838 -0.12075175 -0.22415653 0.23106678 0.024754547
0.17299037 0.4509774 -0.26102468 0.0077237226 -0.31947553 0.14779702 -0.27796194 -0.1664657
0.0405692 -0.05205854 -0.19254093 -0.021032203 0.06166156 -0.22231722 -0.057212155 -0.060061764
0.04011368 -0.12286861 0.19247328 0.18309247 0.28201395 -0.0060526915 -0.17340839 0.04601709
-0.09938759 0.08902138 0.11616406 0.1245164 0.04249173 0.39867198 0.23060633 0.077241585
-0.018976383 -0.5065254 0.032937713 0.02959219 0.38674575 -0.039844584 0.45904854 -0.14278375
-0.048357897 0.2881611 0.0001710656 -0.38300356 -0.096748605 0.17603537 -0.01086845 0.14477755
0.052612636 0.1902516 -0.28338337 -0.53895557 -0.43304977 0.18230243 0.11115769 0.1524005

context_transformer_0/kq_shared_bottleneck/norm/mul;context_transformer_0/kq_shared_bottleneck/norm/add;context_transformer_0/attention/query/einsum/Einsum;context_transformer_0/attention/query/add;context_transformer_0/attention/value/einsum/Einsum;context_transformer_0/attention/query/add/ReadVariableOp/resource;context_transformer_0/attention/Mul;context_transformer_0/attention/Mul/y f4 [32]
00000000: ebea 89bd 75fb 7a3d 80f7 0cbe 6e8a 923d
00000010: 4df3 d1bd 03f0 a53d 6714 873d 86fd 15be
00000020: 864f c2bc b45c 1abe 6550 f9bd d1be 00be
00000030: a512 923d ae19 3d3d 776a 823e 02ff afbc
00000040: a86f 6dbe b9c9 413d d727 e4bd a680 d9bd
00000050: 9df8 75be 88e4 353e bccf 453d 20d3 ed3d
00000060: 8af9 eebd 4a19 25be d342 8cbe 7a7c 653e
00000070: d350 123e e1a4 1d3e 270b 07be 27c3 8abe
-0.0673426 0.061274964 -0.13766289 0.071553096 -0.10251484 0.08102419 0.06595688 -0.14647493
-0.02371956 -0.15074426 -0.12173537 -0.1257279 0.071324624 0.04616707 0.2547185 -0.021483902
-0.23187125 0.04731152 -0.11140411 -0.10620241 -0.2402062 0.17762959 0.048293814 0.116125345
-0.116686895 -0.16122928 -0.27394733 0.22410765 0.14288644 0.15394928 -0.13187848 -0.27102014

context_transformer_0/kq_shared_bottleneck/norm/mul;context_transformer_0/kq_shared_bottleneck/norm/add;context_transformer_0/attention/query/einsum/Einsum;context_transformer_0/attention/query/add;context_transformer_0/attention/value/einsum/Einsum;context_transformer_0/attention/query/add/ReadVariableOp/resource;context_transformer_0/attention/Mul;context_transformer_0/attention/Mul/y1 f4 [32, 32]
00000000: 003d 293c 1804 16bd f04f b4bd 3d72 13bd
00000010: 7ad7 393d 9d74 963b 3d50 793e 0b0e 77bd
00000020: 5764 53bc 08a7 e5bc 7b31 8b3c a318 5ebd
00000030: 88b9 c8bb 5357 1fbc ac7f 46be a49c f23c
00000040: 0368 433b 418e 243e 03b5 74bd b23e babc
00000050: 01fc 073c 8481 04bb c996 82bd d029 2bbc
00000060: 355c ee3c 3438 81bc 4624 003c 831b 063d
00000070: 57c6 4f3e d444 a4bc af39 aabc e495 c0bc
00000080: 7d0a 55bd 718d b7bc b1b1 ca3d 521f 973d
00000090: f169 7fbd 0b17 e2bc a562 7b3e cb78 e53d
000000a0: 1b13 44bd 4688 9abd 6354 a9bd a811 903d
000000b0: 377e 7fbc d4e6 803d 6c35 79bd 07f4 cbbc
000000c0: 643b 28bd fdd4 ad3d a1b0 9ebd 181d 97bd
000000d0: 73a1 01be 6c6e 9ebd c53c ca3d f334 3b3d
000000e0: e574 a13c ecf1 c6b9 c7b6 a6bd fe57 f53c
000000f0: 5a16 f8bb cac5 3f3c 0d75 e8bd 9173 72bb
00000100: b3e4 aa3d c470 4e3d 8e2c 0dbe c09d c9bd
00000110: ea3d 353d e1a1 60bc b943 81be 5eee aabd
00000120: ec71 603d db0e b13d f973 c13d 054d 8ebd
00000130: 04c4 213b 472f 8dbd 40c5 403d 0576 0d3c
00000140: 8657 83bb f2f9 aebd 34b9 9c3d 8f60 8d3d
00000150: 7f6d f73d ee44 c33d df2d 06bd 0260 8dbd
00000160: cf15 a23b 346c 1cbd c609 c33d 0f63 543c
00000170: 5663 ba3c e020 73bd 13e8 ef3c 93e2 78bd
00000180: fb27 12bd d70f 5e3d f73f 833d 1a65 8f3d
00000190: 7e66 02bd 04ca 4dbc 4928 38be 273f da3c
000001a0: f7a1 413c 93f3 05bc f69d 69bd 74c7 da3c
000001b0: dc56 b1bc 2309 483c 5f06 843e 6755 d8bc
000001c0: d5ef 993c 2e05 22be c1f4 483d 6469 bb3b
000001d0: f8e6 7bbd 704b 83bb 525a e23d d85e 7d3b
000001e0: 6b02 06bd 7201 b1bc 84d5 87bc af27 343b
000001f0: 9dae 6bbe cb43 913b 898c 443d 2b22 733d
00000200: 721e e63d c450 cf3c 1dcc bdbd 2515 bdbd
00000210: 114a 013d e5d4 fdbb 1afe a8be 11b2 9dbd
00000220: 7ded 303d d977 d23d 449f 0b3e 3043 31bd
00000230: 99ff a93c c945 1abd 6dd0 9f3c a99f 0abd
00000240: 1787 17bd fca7 0cbe defb a13d 62f5 e13d
00000250: 6c4a 213e afb4 6f3d 50c4 5fbd c022 3bbd
00000260: a11f 1c3c 9f53 dbbb d249 b43d c79f c7bc
00000270: 7e31 b43c f656 b4bc 8efb 2c3d 9a27 a9bd
00000280: 7342 8cba 2174 3b3c 8bf2 b03d 7b94 443d
00000290: 7a6c 76bd 47d6 babc 9756 84be cfa3 903d
000002a0: d4de b2bc 35ba f53c bee2 30bc 2cbb 9b3d
000002b0: 7ec9 8d3b deaa a73c 6a9a 2a3e 7f2f 8cbd
000002c0: 7e36 a4bc abc8 27be 9f9e e13c 9ca2 3f3d
000002d0: be49 0b3c 40ee a0bc 2b50 a73d e936 8b3c
000002e0: d5d1 cd3b 5a7f 2ab9 ed7e e2bb 2f9b 04bd
000002f0: 31db 27be 4ad8 143c d9b9 3fbc 91ca ee3c
00000300: 3323 2bbd 33ad 29bd 32f0 0a3e d912 773d
00000310: 6dcd 50bc e48d ea3c 5f63 7f3e 254f ee3d
00000320: 3a03 0ebd 41a7 a9bd ebd2 82bd 23a4 4e3d
00000330: a734 233c 2cd7 473d 74a8 bcbd e9c2 e6bb
00000340: 6392 67bb 090e d63d 7b93 74bd 7a06 96bd
00000350: 95ee 8bbd af98 86bd e33f 6c3b 6dcd 413d
00000360: a240 8a3c 3402 1e3d 7ec0 cabd cf7c 10b9
00000370: bcaa 143d fc41 153d 1564 98bd aeb9 933b
00000380: 7122 b5bd 4ab1 fc3d 0f52 51be 4eaf 74bc
00000390: 90da c93d a62f 0b3c 0144 973d 63e4 40be
000003a0: 2313 bd3d c9a0 503c e92b 42bd f4ae 18be
000003b0: 981f 99bd 74cb dbbd 1cff 253e c51e 2a3e
000003c0: a722 bd3d 30de 943c b9d9 873d 122b 0abc
000003d0: cce0 56bd 2efe ff3d 4169 3f3d bef1 dfbd
000003e0: 0cad b4bd c4f3 bdbd 2828 a83d eecc da3d
000003f0: 30b9 a4bd f48d e3bd 7786 063e 763d b03d
0.010329485 -0.036624998 -0.08804309 -0.035997618 0.04537151 0.004591538 0.24347015 -0.060316127
-0.012902341 -0.028033748 0.016991368 -0.054222714 -0.0061256327 -0.00972541 -0.1938464 0.029615708
0.0029816634 0.1606989 -0.05974294 -0.022734974 0.0082998285 -0.00202188 -0.06376416 -0.010446981
0.029096702 -0.01577387 0.007821148 0.03274108 0.20290504 -0.020052351 -0.020779459 -0.023508973
-0.052011956 -0.022406312 0.09897173 0.07379021 -0.062356893 -0.027598878 0.24549349 0.1120468
-0.047869783 -0.07545523 -0.082680486 0.07034618 -0.015594057 0.06294027 -0.060841963 -0.024896635
-0.041072264 0.0848789 -0.07748533 -0.07378596 -0.12659244 -0.07735905 0.09874872 0.045704793
0.01970906 -0.0003794575 -0.08140331 0.029949185 -0.007571024 0.011704871 -0.11350451 -0.0036995152
0.08344402 0.05040051 -0.13786528 -0.098445415 0.0442485 -0.01371047 -0.2524698 -0.08346246
0.054796144 0.086454116 0.09445948 -0.06948284 0.0024683485 -0.06893783 0.047063112 0.008634095
-0.0040082363 -0.08543767 0.07652512 0.06903183 0.120814316 0.09534632 -0.03275859 -0.06903078
0.0049464474 -0.038189128 0.095233485 0.0129630705 0.022752445 -0.059357524 0.029285466 -0.060762953
-0.03568266 0.054214325 0.06408685 0.070017055 -0.031836025 -0.012560371 -0.17984118 0.026641442
0.011818401 -0.008175748 -0.05703541 0.026706435 -0.021647863 0.01220921 0.2578611 -0.02640791
0.018791119 -0.15822288 0.04906154 0.0057193507 -0.061499566 -0.0040067956 0.110523835 0.0038661268
-0.03271715 -0.021607134 -0.016581304 0.0027489474 -0.23015828 0.0044331304 0.047985587 0.059358757
0.11236276 0.025307067 -0.09267447 -0.092325486 0.031564776 -0.0077463263 -0.33006364 -0.07699979
0.043195236 0.102767654 0.13634974 -0.043276966 0.020751761 -0.03766421 0.019508565 -0.03384367
-0.036994066 -0.13735956 0.07909368 0.11033131 0.15751046 0.058521923 -0.054630578 -0.045687437
0.009529025 -0.006693318 0.088031426 -0.02436818 0.021996256 -0.022014122 0.04223209 -0.082595065
-0.0010700956 0.0114412615 0.086400114 0.047993165 -0.060162045 -0.022807254 -0.25847313 0.07062494
-0.021834768 0.029996017 -0.010796247 0.076040596 0.0043269983 0.020467218 0.16660467 -0.06844997
-0.020045515 -0.16385143 0.027541457 0.046785936 0.008501468 -0.019644856 0.08169588 0.016993957
0.0062811174 -0.00016259906 -0.0069121034 -0.032374557 -0.16392209 0.00908477 -0.011702024 0.029149326
-0.041781615 -0.04142494 0.1356819 0.06032071 -0.01274429 0.028632112 0.24940251 0.11636189
-0.034671046 -0.08283854 -0.06387886 0.0504495 0.009961284 0.04878919 -0.092118174 -0.007042278
-0.0035335056 0.10451896 -0.05971096 -0.07325454 -0.06832615 -0.06572091 0.0036048822 0.04731505
0.016876522 0.03857632 -0.09899996 -0.00013779405 0.036295637 0.03643988 -0.07440964 0.0045082187
-0.0884446 0.12338503 -0.20441459 -0.014934374 0.098561406 0.008495247 0.073860176 -0.18837123
0.09232166 0.012733647 -0.047405157 -0.1491049 -0.07476729 -0.10732165 0.16210598 0.166133
0.09235125 0.018172354 0.06633324 -0.00843312 -0.052460477 0.12499653 0.046731237 -0.109347805
-0.088220686 -0.0927501 0.08210784 0.106836185 -0.08043134 -0.1111106 0.13137232 0.08605473

context_transformer_0/ffn_layer_0/intermediate_dense/einsum/Einsum;context_transformer_0/ffn_layer_0/intermediate_dense/Relu;context_transformer_0/ffn_layer_0/intermediate_dense/add f4 [32]
00000000: fe79 e4be e121 65be e8bc 50be 49a4 0dbe
00000010: 07ad 9cbd cdf5 2dbe 0277 f5be 8721 a0be
00000020: 9a2e c6bd 8914 86be af87 b1be 43b2 90be
00000030: 6ecf 33be c778 fabe acf4 79be fc4b aabd
00000040: 57ed 98be 67ae 59be 542c c1bd d85a 7abe
00000050: 8385 92be 77ce 24be 5de1 a4be d8fd 27be
00000060: 916f 59be 47be 6dbe d392 13be 61a6 79be
00000070: fe96 90be 343c d9be 0728 aabe 5147 dbbd
-0.44624323 -0.22376205 -0.20384562 -0.13832201 -0.0765019 -0.16988297 -0.47942358 -0.3127558
-0.09676857 -0.26187542 -0.3467383 -0.28261003 -0.17559597 -0.4892027 -0.24409741 -0.08315274
-0.29868576 -0.21257935 -0.09432283 -0.24448717 -0.28617486 -0.16094385 -0.3220319 -0.16405427
-0.21233965 -0.23217116 -0.14411478 -0.24379875 -0.28240198 -0.42428744 -0.33233663 -0.10706962

context_transformer_0/attention/norm/mul;context_transformer_0/attention/norm/add;context_transformer_0/ffn_layer_0/intermediate_dense/einsum/Einsum;context_transformer_0/ffn_layer_0/intermediate_dense/Relu;context_transformer_0/ffn_layer_0/intermediate_dense/add f4 [32, 32]
00000000: befc 8ebd 5d85 1cbe d8b6 92be 7e63 473d
00000010: 4ae6 39bc 177a 6dbd eb19 283e 15e4 513d
00000020: 016c 85be 0641 8e3e 0396 32be 651e f83d
00000030: 3da2 08be 882e ef3d f332 063d 012b 363e
00000040: 9fdc f73d 219e cd3d 2ae5 f0bd b7ef 92be
00000050: 8f08 f13d 4e90 293e a185 89bc 0b3e 4b3e
00000060: 10e5 d53d 9570 733c 7495 96bd 70a8 7dbe
00000070: 2a06 27be e434 d93d ebb8 783c d137 b9bc
00000080: a168 8a3e 0fdc 0bbe 4b76 46be 478b 0abd
00000090: 1f89 6d3d 8451 773d 07d2 263d 8c08 5ebd
000000a0: 124f c13e 7d6f 2abe eead 9c3d 89c3 0cbf
000000b0: 328b 20be 6753 933d 2986 00bc e7ec 673d
000000c0: 663a bc3d 1650 dabe 142b 263e eec4 8a3c
000000d0: bcf1 4cbe 148c 16be 9de2 9d3c 9ec2 c03c
000000e0: f0d1 c3bd d280 f5bd ff81 a43e e9d3 a6be
000000f0: 8caa 7b3e eca7 973d 8ea7 1abe 4b02 0d3e
00000100: 6beb 033e 709d 49be 2fa2 12be 4a99 333e
00000110: b18c 8d3c ec71 6f3d 5be8 eb3d 5b8b b9be
00000120: e715 76bd 446c 0f3e 567e 78be 28bc fdbd
00000130: 7ffb ba3e 7b8b 7a3d 9525 87bd 7676 f0bd
00000140: 663c 12be 95b9 973e 758a 84bd 1e65 a9bd
00000150: 6b9c 13be cd8e 84bd 5a82 13be b3d5 9bbd
00000160: a783 b3bc 0e84 253e b777 8c3d e5e4 0abe
00000170: dc48 fcbd dd50 983e 0f8b b4bd 58e3 35bc
00000180: e6d8 4c3e 2402 60be fa63 9ebe 3662 49bd
00000190: 137d b13e aab2 6ebb f8b0 573d dcaf dcbd
000001a0: 7ef8 89be 6e19 123d f864 bcbd dea6 e5b9
000001b0: b894 c0bd 0eee ca3d 8338 ddbd 5d54 1cbe
000001c0: c9ab 72bc 2b2c 243d 6e33 f73d 6cda 4a3e
000001d0: ae24 e53b 2015 493d 1785 96bd 4e31 3fbd
000001e0: 6934 2cbc 98d7 183e 7d7a 1abe 760d 92bd
000001f0: e2aa d53d 5515 9fbe b9d7 bfbe 99c3 30be
00000200: 9e68 3c3d 1031 25be e2b3 153e 2f9b 92bd
00000210: d056 83bc fd05 343e 32ef 9cbe a233 2bbf
00000220: 0d3f 1ebe 40d7 dbbd d1bc 33bd f7fb 9bbd
00000230: c06b 8d3c 6963 013d 1a09 913c 6884 24be
00000240: 64d6 6a3d 466c 393e 4aa8 aabe fe8f a7be
00000250: 4f54 c83d 4af1 bcbe 9de9 acbe 7a3b 883e
00000260: 08a9 b33d f14d 3fbb 3e7a eb3d e971 5cbd
00000270: f20e 9c3d 0912 f8bc 2959 143d 551a c73c
00000280: 9a2f 31be 923f 94be 021c 0f3b a59b e6be
00000290: 75b0 be3d 82d2 983d 65fd f5bd af39 a7be
000002a0: e646 5ebe 458b 56be 6072 e33d e981 743e
000002b0: 99e3 c0bd e4e1 463e f237 01be 51e9 843d
000002c0: 69d8 4ebd cd6e 7a3c 2bc2 10be 4df4 bfbe
000002d0: b1af 8f3d 8101 41be 8c55 14be 9ad5 543e
000002e0: cf47 263e 3ff0 7bba a1d1 ce3c 19f5 46be
000002f0: 38f5 56bd 8431 19be f54b 66be 9954 42be
00000300: d956 15bd e05f 71be fce6 93bd a8b4 12be
00000310: 307c 53be 93f3 a73d 9fd0 7dbd e341 80bd
00000320: 56b0 583e b4b4 943e 2b9c 6abd c259 df3d
00000330: 1492 813e 02a3 e93d 17ea ca3d 2814 073e
00000340: 93e6 3bbe 6108 4d3e ac9b ba3e 6351 b5be
00000350: f87a bd3d 562a b0bd 7986 063e 9b15 523e
00000360: 722e 693e 67c8 113e 7901 453c 7902 cbbd
00000370: 7f6e b0bc f183 d4bd 5504 a5bd 0eed 2abe
00000380: 0a98 5cbe bf3e c4bd d86c 5d3c 90f8 d3bd
00000390: 7b25 593e 14f7 293e 3e7f 2fbd a841 6d3e
000003a0: d04e 4abe 3aa2 2b3e a1f6 833c 428f e7bb
000003b0: 44b7 693d ac67 bf3c ea49 e9bd 1bda 0bbe
000003c0: fce1 10bc fabd f03d ac91 60be 17c1 303d
000003d0: 73ee 3abe 65a9 f2bd 5ab6 48bd 7ce3 c83d
000003e0: cf38 fdbd 4726 96bd f37d cb3e b241 ee3d
000003f0: d2a2 ebbd 6bae a5bd 08cb 083e 31d3 893d
-0.069818005 -0.15285249 -0.28655124 0.048678868 -0.011346409 -0.057977762 0.16416137 0.051242907
-0.26058963 0.27783984 -0.17440037 0.12115172 -0.13343139 0.11678797 0.032763433 0.17789842
0.12102627 0.10039926 -0.117624596 -0.28698513 0.117692105 0.16558954 -0.016787352 0.19847886
0.10444081 0.014858385 -0.07352725 -0.24771285 -0.16310945 0.10605791 0.015180807 -0.022609623
0.2703295 -0.13658164 -0.19381063 -0.03382423 0.057992097 0.060380474 0.04072764 -0.05420737
0.37755638 -0.16644092 0.07650362 -0.5498586 -0.15678099 0.07193642 -0.007844486 0.056622412
0.09190826 -0.42639226 0.1622737 0.016939607 -0.2001409 -0.14701873 0.019273097 0.0235303
-0.09561527 -0.11987461 0.3213043 -0.3258355 0.24576777 0.074050754 -0.1510298 0.13770406
0.12882774 -0.19688964 -0.1431968 0.17538944 0.017279001 0.058458254 0.11518928 -0.36239132
-0.06007948 0.14006144 -0.24266943 -0.123894036 0.3652 0.061168175 -0.06598965 -0.11741345
-0.14280853 0.29633775 -0.06471721 -0.0827124 -0.14415137 -0.064725496 -0.14405194 -0.07609119
-0.021913363 0.16163656 0.06858771 -0.13563879 -0.12318584 0.29749194 -0.08815586 -0.011101566
0.20004615 -0.21875817 -0.3093565 -0.049165927 0.34665737 -0.003642241 0.052659005 -0.1077573
-0.26947397 0.035668783 -0.09198946 -0.0004380261 -0.09403366 0.099086866 -0.108017944 -0.15266557
-0.014811465 0.040081184 0.12070356 0.19809884 0.006992898 0.049092412 -0.073496036 -0.04667788
-0.010510542 0.14925992 -0.15085788 -0.07131474 0.10432984 -0.31070963 -0.3746927 -0.17262115
0.04599821 -0.16131997 0.14619401 -0.07158505 -0.016032606 0.1758041 -0.30651242 -0.6687566
-0.1545374 -0.10734415 -0.04388124 -0.07616418 0.017263293 0.031588946 0.017704535 -0.16066134
0.057333365 0.1810771 -0.3333152 -0.32727045 0.097817056 -0.3690284 -0.33771983 0.26607877
0.087724745 -0.0029190744 0.11497925 -0.05381957 0.07620038 -0.030282037 0.036217842 0.024304548
-0.17303315 -0.2895475 0.0021836762 -0.45040622 0.09311 0.07462026 -0.12011222 -0.32661197
-0.21706733 -0.20951565 0.111058 0.23877682 -0.09418411 0.19422108 -0.12618998 0.06489814
-0.050499354 0.015285206 -0.14136569 -0.37491074 0.07015932 -0.1884823 -0.14485759 0.20784608
0.1623833 -0.00096106896 0.025246443 -0.19429435 -0.052479953 -0.14960295 -0.22489913 -0.18977584
-0.036459778 -0.2357173 -0.07221791 -0.14326727 -0.20652843 0.08200755 -0.061966535 -0.06262567
0.21161017 0.29044116 -0.05727784 0.10905792 0.2530676 0.114080444 0.0990793 0.13191283
-0.18349676 0.20022728 0.36446893 -0.35413656 0.0925197 -0.08601825 0.13137235 0.20516054
0.22771624 0.14236604 0.012024277 -0.09912581 -0.021537064 -0.10376728 -0.08057467 -0.16691992
-0.21542373 -0.0958228 0.01351472 -0.10350144 0.21205704 0.16598159 -0.042845957 0.23169577
-0.19756627 0.16761103 0.016108813 -0.007066638 0.05705954 0.023364864 -0.11391051 -0.1365742
-0.008842941 0.11754985 -0.2193057 0.043152895 -0.18255024 -0.11848716 -0.04900203 0.09809014
-0.12364351 -0.073315196 0.3974453 0.11633624 -0.11505665 -0.08089908 0.133587 0.06729735

context_transformer_0/ffn_layer_1/intermediate_dense/einsum/Einsum;context_transformer_0/ffn_layer_1/intermediate_dense/Relu;context_transformer_0/ffn_layer_1/intermediate_dense/add f4 [32]
00000000: 39c9 7dbe 2c16 76be 666e bdbd c7db 76be
00000010: 1e35 1cbe 7de0 95be 5a05 d0bc 9bfc 83be
00000020: 5444 b4bd be73 7abe 4194 cebd 80cc 0abe
00000030: 1002 b7be c529 79be 2aef d9be 2828 3ebe
00000040: 353d 60be 28fe a93d 915e 4abe 562e 3dbe
00000050: 98c8 75be ef08 9abe 7e28 b1be 036c 1bbe
00000060: 4cb4 08be 354e 81be b362 b5bd 329a 2fbd
00000070: 4dc9 83bd 2781 49be ea1e 7fbe fc6a 0abe
-0.24783792 -0.24031895 -0.092495725 -0.24107276 -0.15254638 -0.29272833 -0.025393177 -0.2577866
-0.08802095 -0.24458215 -0.10086871 -0.13554573 -0.3574376 -0.2433234 -0.4256528 -0.18570006
-0.21898349 0.083004296 -0.19762637 -0.18474707 -0.24002302 -0.3008494 -0.34601206 -0.15177922
-0.13350028 -0.2525498 -0.08856716 -0.04287166 -0.064348795 -0.19678174 -0.24914137 -0.13517374

context_transformer_0/ffn_layer_0/norm/mul;context_transformer_0/ffn_layer_0/norm/add;context_transformer_0/ffn_layer_1/intermediate_dense/einsum/Einsum;context_transformer_0/ffn_layer_1/intermediate_dense/Relu;context_transformer_0/ffn_layer_1/intermediate_dense/add f4 [32, 32]
00000000: 12df da3c 2a9e f4bc b7d3 553b 4086 61bb
00000010: 26d2 12be e080 563d cfd9 2abe 5f01 93be
00000020: bea9 f8bd 65e8 11be ab8d a7be 9716 0bbd
00000030: 0ce8 173e ae33 ad3d 2803 33be caf4 873e
00000040: 5d4d 04bd bb8d 73bd 62b9 35bc fe0e f1bc
00000050: b2cc 89be ece8 9dbe 2603 3cbd 7926 4e3e
00000060: 558e 77be af01 f63c 24a4 c53e 5dc2 7e3e
00000070: edde 1c3e d983 45be 95fe 04be c272 893e
00000080: f7ef 2f3e 6b5c c2be ce0a a3be 44bd 0b3d
00000090: 7d87 563e 8df6 5e3e ce00 433e 3d4a 293e
000000a0: 0b67 4c3b badd 4abb 2f0d 603d 700c 713d
000000b0: 0151 10bf aa8f 93bd 61bd d2bd 00fe 073e
000000c0: 690d 1a3e 414f 9e3d 6523 d83e 218e 5e3d
000000d0: f1b1 7e3d 3c6e 33bc 75cb 1b3e 7dd4 393d
000000e0: d831 a2bc e1d2 913d 1cbf babe e402 10be
000000f0: 5aee 35bd 85c0 62be 6c96 88bd 5c29 8d3b
00000100: f273 4ebe 8856 053d 82c6 fb3c 1cd3 68be
00000110: ef15 c53c 1f0e 5d3d 4671 0cbe 32c1 923d
00000120: 18e3 0c3e fc95 fdbd 2de9 0d3d 7446 9cbe
00000130: c924 d4be 9ab5 1e3e 7ab4 5abe 70ce 10be
00000140: ef71 0f3e 3693 97be e311 d4bc 6158 a0be
00000150: ca17 adbc f8ea d33c 2a78 2abd 3194 5fbe
00000160: bb1d 21be b49c 5dbe a3f6 193e a216 5c3c
00000170: 6b10 773e 2dd4 94bc f30f 68be 743a 02be
00000180: de19 81be 9ae8 243e 3ecd 183e 59f7 e23b
00000190: d37c 433d 66f6 343e 2cb8 88bc 577e 80be
000001a0: b3fb 72be 5dc3 13be a7cb 5d3e 71be 1b3e
000001b0: 710b 95be bbe8 1bbc 4f60 e2bd c65f de3d
000001c0: 3899 e3bd 3656 003e ab58 ad3e b305 1cbe
000001d0: 11f2 b2bd 9ed6 efbc 9c14 52bc fa9f 503e
000001e0: 7778 1e3d d2c3 02be cdb4 813e c0a0 973d
000001f0: a27f 84bd 6234 0abe 7537 6a3b 2ee9 d53e
00000200: 0737 c03d 58ad 70be f4b4 303e 7618 71be
00000210: 77c8 783e 0037 853d 23c7 dabe b7ca 6f3d
00000220: 959d 97be e04b b1be 90ad f33d 615e 89bb
00000230: efbd 8cbe 5679 82bc 5e71 183d 7995 553d
00000240: 08f9 d03e a631 9ebe f069 22be eaaa 03be
00000250: ee54 003f 7d6f be3d 6900 1cbd 0238 903e
00000260: fd7a 273d 09c2 f3bd 5238 a33e aa02 fd3d
00000270: 3b11 07be 08c2 60be 8469 233d 4cc8 a2be
00000280: 0ecf a83d 4d08 46bd df05 a4be 4d2e ab3e
00000290: c36c dcbd b65e 00bc 8637 ebbd 3a5e fcbd
000002a0: 0218 5abe 40dd a1be 80dd adbd 6d07 893c
000002b0: 84c0 24be c6b6 303d a029 d13d 2a9d 61bd
000002c0: 7943 f73e d3d0 22bd 8fbf 02be c6b0 be3c
000002d0: 6803 81bd a2b3 60be 7837 583c 1349 e73b
000002e0: 3768 c0bd 65c5 c93d ed60 563e f438 aebd
000002f0: 6211 e9bd 1a4d 163e 7d0a b63d 38e2 e23d
00000300: ecc4 a7bc ef46 36be 44c4 80bd 4c64 2fbe
00000310: e9d3 cabe 89e2 133d a3a3 433d 6caf b73c
00000320: 71c0 743e c555 3cbe 756d 8dbe e74f f23d
00000330: cb92 9e3d db67 a0bc 343a 61bc c385 aebd
00000340: 393d 393d cd83 c8bd a8b6 05bf f5d4 ebbd
00000350: b04b 9e39 2877 99be cc77 88be 50cf 62be
00000360: fc96 27be 7990 303e 5b3c b93d 2f74 3bbd
00000370: 5c6b ff3d 7b72 2ebd 1002 b43d 3520 1cbc
00000380: 2126 1dbd 57b7 1bbd eed5 a8be f73e a3be
00000390: 626d f6be f5ea 9fbe ddc7 5b3d a728 9c3d
000003a0: af12 a1be a8ec 17bd 233c ca3d c67d debd
000003b0: a529 96bd 9515 903d 698f 79bc 380a 433e
000003c0: 10a6 2f3e 5ac4 38be 1824 10bd 2550 2a3e
000003d0: 0219 b1be 1983 963e 3d2f 903d 747d febd
000003e0: 271f f939 f822 51bd 4596 bf3d 0cc7 cd3d
000003f0: b793 1a3e 568d 07be f061 08be 768a 043d
0.026717696 -0.029860575 0.0032627413 -0.0034412295 -0.14337978 0.052369 -0.1668465 -0.28711984
-0.12141751 -0.14248808 -0.32725272 -0.03395709 0.14834613 0.08457123 -0.17481673 0.26553947
-0.032300342 -0.059461337 -0.011091562 -0.029426094 -0.26913983 -0.30841768 -0.04590144 0.20131864
-0.24175389 0.0300301 0.38601792 0.24878831 0.15319414 -0.19288577 -0.1298774 0.26845366
0.17181383 -0.37961134 -0.3184418 0.034116045 0.20950122 0.21773739 0.19043276 0.16532226
0.0031189348 -0.0030954913 0.054700073 0.058849752 -0.563736 -0.07205136 -0.102900274 0.13280487
0.15044178 0.0772996 0.42214504 0.054334763 0.062181417 -0.010951575 0.15214331 0.04536866
-0.019799158 0.071203 -0.3647393 -0.14063603 -0.044416763 -0.22143753 -0.06669316 0.004307909
-0.20161417 0.032553226 0.030734304 -0.22736782 0.02405831 0.053968545 -0.13715085 0.07165755
0.13758504 -0.12382123 0.034646202 -0.305225 -0.41434315 0.15498963 -0.21357909 -0.1414125
0.14008306 -0.296045 -0.025887435 -0.31317428 -0.021129508 0.025868878 -0.041618504 -0.21833874
-0.15733998 -0.21641809 0.1503549 0.01343313 0.24127357 -0.01816758 -0.22662334 -0.1271761
-0.25215048 0.16104355 0.14922044 0.006926459 0.047726464 0.17672119 -0.016689382 -0.2509639
-0.23728828 -0.14429994 0.21659718 0.15209366 -0.29110292 -0.0095159365 -0.11053526 0.10858111
-0.111132085 0.12532887 0.3385671 -0.15236549 -0.08737577 -0.029277142 -0.0128222965 0.20373526
0.038689103 -0.12770012 0.25333253 0.074037075 -0.064696565 -0.13496545 0.0035738621 0.41779464
0.09385496 -0.23503625 0.17256528 -0.23544487 0.24295221 0.06504631 -0.42730054 0.058542933
-0.29612413 -0.346282 0.11898339 -0.004192159 -0.27488658 -0.015926998 0.03721749 0.0521445
0.40814996 -0.30897254 -0.15860724 -0.12858167 0.5012959 0.092986085 -0.03808633 0.2816773
0.040888775 -0.11902244 0.31878906 0.12354024 -0.13190167 -0.21949017 0.03989555 -0.3179344
0.082426175 -0.04834776 -0.3203573 0.33433762 -0.10762932 -0.007835081 -0.114852 -0.1232266
-0.21298221 -0.31614113 -0.084895134 0.016727174 -0.16089064 0.043143056 0.102130175 -0.055081524
0.48293665 -0.03974993 -0.12768386 0.023277652 -0.06299478 -0.21943524 0.0131968185 0.0070582717
-0.093948774 0.09852103 0.20935412 -0.08506957 -0.11380269 0.1467785 0.08888719 0.11078304
-0.020479642 -0.17800497 -0.06287435 -0.17128104 -0.396148 0.036104713 0.047763478 0.022422515
0.23901536 -0.18392093 -0.27622572 0.118316464 0.07742842 -0.019580772 -0.013746787 -0.08521607
0.045224402 -0.09790764 -0.52231836 -0.11515228 0.000301925 -0.29973722 -0.26653898 -0.22149396
-0.1636619 0.17242612 0.09044715 -0.0457651 0.12471649 -0.042589646 0.08789456 -0.009529163
-0.03836644 -0.038016643 -0.32975715 -0.31883976 -0.48130327 -0.31233945 0.0536574 0.07624941
-0.31459567 -0.037090927 0.098747514 -0.10863833 -0.07332162 0.070353664 -0.015231946 0.19046867
0.17153192 -0.18043652 -0.03519067 0.16632135 -0.34589392 0.29396895 0.0704026 -0.12426272
0.0004751619 -0.05105874 0.093548335 0.10047731 0.15095411 -0.13237509 -0.1331861 0.03235861

context_transformer_0/ffn_layer_2/intermediate_dense/einsum/Einsum;context_transformer_0/ffn_layer_2/intermediate_dense/Relu;context_transformer_0/ffn_layer_2/intermediate_dense/add f4 [32]
00000000: a685 e9be 32db a6bd 4616 a43d 66fa 0bbe
00000010: 40be 3fbe 2ec2 72be 13b3 e9bc 6d4c c5bd
00000020: 5f33 abbd 9a2d 8bbe c832 3bbd de03 3bbd
00000030: 2bab 1fbe c485 9abe 2956 babd 4c67 20be
00000040: ffa3 1cbe 1b6d 24be 3ebd c1be be34 43bd
00000050: d6c4 abbe ae0c 78be 76f5 a8be 79cf 05be
00000060: 1c64 c9bc a057 fabd bbeb 19be 5056 45be
00000070: b8bb 39be 35ff f0bd aa20 ee3d 869e 83be
-0.45609778 -0.08147277 0.08012061 -0.13669738 -0.18724918 -0.23706886 -0.028527772 -0.09633718
-0.08359408 -0.2718323 -0.045702726 -0.045657985 -0.15592639 -0.3018018 -0.09098465 -0.15664405
-0.15296935 -0.16057245 -0.37839693 -0.04765772 -0.3354861 -0.24223587 -0.32999772 -0.13067426
-0.024583869 -0.122237444 -0.1503133 -0.19271207 -0.18138015 -0.11767427 0.11627324 -0.2570688

context_transformer_0/ffn_layer_1/norm/mul;context_transformer_0/ffn_layer_1/norm/add;context_transformer_0/ffn_layer_2/intermediate_dense/einsum/Einsum;context_transformer_0/ffn_layer_2/intermediate_dense/Relu;context_transformer_0/ffn_layer_2/intermediate_dense/add f4 [32, 32]
00000000: 4b00 493e 90d2 fe3d e9a8 1abd 16a6 2f3e
00000010: 5ca7 87bc 1dad 4a3e 524b bfbc 9258 143e
00000020: f478 c5ba b3e0 f5bd 75ea 6c3e b4de 373e
00000030: 131c 01be fe4a a0bd 9ba9 f53d ead1 64bc
00000040: 8475 943e 23a6 33bc 8fff 1cbe f296 edbc
00000050: 21f8 4a3d 76d0 f83d e249 323e 395d 17be
00000060: 74ab 04be 8650 08be fd45 cb3e 6ccd 043e
00000070: e753 18be 0f40 a2bc 24ce 4ebd f963 a3be
00000080: 3f22 78bd 2100 133e b146 72be 8ed3 1fbe
00000090: 9d3c 263d 46af c03c 9b82 0f3e ed24 023e
000000a0: 135a 9dbd 229d ca3d 4213 bbbe 6f4f 11be
000000b0: e2ba 75bd bb33 8fbd 5413 d7bd a1cc 4fbe
000000c0: d8b0 7abc f920 33be 0f6d 96bd 9c75 073e
000000d0: 3e85 d5bd 0b71 6fbe 834b b93b be4c 47bd
000000e0: bafe afbe c9a3 843e e3f1 f9bd 7def 6abe
000000f0: a96c 75bd 63f6 253e e7f5 cfbd f8ba b2bd
00000100: 76b2 81be 9e36 b73d 1e9f c13d 0c04 80be
00000110: fe97 ed3d bd38 5ebd 45a9 5dbd ebc3 d6bd
00000120: 9aa6 033e f10b 2e3d cc22 9ebd 1b48 59be
00000130: 7a70 ccbe fc49 513e a561 67bd bd92 e9bc
00000140: 2c0b 313d c260 0fbd 6bb7 8b3e 0725 73be
00000150: 88d9 fdbd 7cbd 4e39 c9b2 2e3e e0f2 dbbd
00000160: cc2b 00be a82b 95bd 1b92 3c3c a6d7 f1bc
00000170: ae4a 4d3e f607 c4bd 6551 c5be dc55 4bbe
00000180: fd1e 143e 17db 093e a961 e83d a58a 363e
00000190: a504 053e 8848 22be 8752 cf3e cd79 abbe
000001a0: 1098 4c3e e3df 09be 5c9a a4bc f8e0 503e
000001b0: f4d5 a83c eab3 c2bd 6e89 2a3c fba7 633e
000001c0: def5 83bc 8158 cd3d 6e81 ddbd 572d a8bd
000001d0: e2af 0e3e eb0e 623d 7f60 d2bd 3793 523d
000001e0: c709 4fbb 0284 c43d bc35 dbbd 0514 0e3e
000001f0: c4e4 cd3d 00c1 1a3e d055 8dbe aff1 99bc
00000200: f3ed df3d 5ce8 47be 02d7 95be ec89 733e
00000210: c5f1 fa3c fc31 98bd 83e5 88bc 40c5 303d
00000220: ae12 8c3d 5e8f 1ebe 6bac af3d 04b5 533e
00000230: f88c a53e 111f 81bc df97 5abe c6a8 03bd
00000240: 21b0 b73b c9e1 78bd fef4 533e 9434 1bbe
00000250: dd6f c43e 1557 1bbe cd7b 5a3e 0ccc 4bbd
00000260: d878 c2bd c400 67be 3508 9c3c 4885 acbd
00000270: e97a 193e cdd4 123e aed3 d5bd dcfb 06bc
00000280: 79bc a63e 64b8 9dbd 2c91 813d 5ebf 07be
00000290: 73d8 e5bc 016c 42be 7c98 3cbe 686d b5bd
000002a0: 14ce a3be 1ebc 243d 3e32 cebd 9e91 f7bd
000002b0: aade c5be c7bb d73d bea5 87be 76ad b6bd
000002c0: 723d 59be 63fd 1f3e 4caf 80bd c9f2 04be
000002d0: af1c b43b 450c f7bc d310 cfbd 14ac 34bd
000002e0: 85c3 ddbc 4053 a6bd 3bf7 c53d 959c 4d3d
000002f0: 6059 7a3d 0b88 973e 793f 2dbd 94e8 b8bd
00000300: 5b56 81bd a027 e73d 47a0 f63d 6997 003e
00000310: 8473 1d3e 70b2 50bc f172 6a3c 1d67 5c3d
00000320: 59d8 abbd 7bba c83d 364d 04be 76de 21be
00000330: 2b65 40bd 2296 643d 9c8c b4be 37c5 03be
00000340: 175d 663d 9c33 babd 2e77 643e ac02 77be
00000350: 87b9 333e b83e 10be f0e5 47be 64d5 d63d
00000360: 8746 0a3d a0f3 b0bd 5e0b c8bd 7309 473e
00000370: c7d2 73be e392 973e 39b9 c53d 1858 113e
00000380: 8eb7 6abc 8e63 19be 28d5 483c e493 323e
00000390: a57f 803d a19b cabd 4cc9 3fbb d294 693d
000003a0: cbea 7a3e 1a1a 10be 1720 29be f713 9abd
000003b0: d985 8c3d 4ff9 cabc 1216 8bbd bc8e 3a3e
000003c0: 1147 fd3d 0474 093e 757d 5a3e 1fc5 10bd
000003d0: bd24 d6bc 5789 87bd 644f 873d 5c1b ffbd
000003e0: 9325 89be 0252 3c3d 1956 e83e bd26 e2bd
000003f0: ed27 7f3e 0303 41be 2a74 93be 198c db3c
0.19629018 0.12442505 -0.03775874 0.171532 -0.016559295 0.197926 -0.023351345 0.14486912
-0.0015065954 -0.120057486 0.23136313 0.17956048 -0.12608366 -0.078268036 0.1199524 -0.013966063
0.28995907 -0.010964903 -0.15331863 -0.02900264 0.04955304 0.12149136 0.17410997 -0.14781655
-0.12956029 -0.13311967 0.39701834 0.12968987 -0.14875756 -0.019805936 -0.05048956 -0.3191221
-0.060579535 0.14355518 -0.23659779 -0.15608045 0.04058515 0.023521077 0.14014666 0.12709399
-0.07683196 0.09893252 -0.3653813 -0.14190458 -0.05999268 -0.06992289 -0.105017334 -0.20292903
-0.015300952 -0.17493047 -0.0734502 0.13228458 -0.104258046 -0.23382966 0.0056547537 -0.04865717
-0.34374028 0.25906208 -0.12204339 -0.2294292 -0.05991808 0.1620727 -0.10154324 -0.08727068
-0.25331467 0.08945964 0.09454177 -0.25003088 0.11601256 -0.05425333 -0.054116506 -0.10486587
0.12856522 0.042491857 -0.07721481 -0.21218912 -0.39929563 0.20438379 -0.056489605 -0.028512353
0.043223545 -0.035004385 0.27288374 -0.23744594 -0.123950064 0.0001971628 0.17060389 -0.10739684
-0.12516707 -0.072837174 0.011509444 -0.029521775 0.2004802 -0.09571831 -0.38538662 -0.19856972
0.14464946 0.13462482 0.11346752 0.17826326 0.12990053 -0.15847981 0.4049265 -0.33491364
0.19979882 -0.13464312 -0.020093136 0.20398319 0.020609833 -0.09506972 0.010408742 0.22232048
-0.01610845 0.100266464 -0.108157024 -0.08211773 0.13934281 0.055190008 -0.102723114 0.051409926
-0.003159152 0.09595491 -0.107036084 0.13874824 0.10053399 0.15112686 -0.27604532 -0.018792002
0.10934057 -0.19522232 -0.292656 0.23783082 0.030632863 -0.07431409 -0.016711002 0.043156862
0.068395 -0.15484378 0.08577808 0.2067452 0.32334113 -0.015761884 -0.21346997 -0.032143377
0.005605713 -0.0607622 0.20698926 -0.15156776 0.38366595 -0.15169938 0.21336289 -0.04975514
-0.09495705 -0.22558886 0.019046882 -0.08423859 0.14988293 0.1433899 -0.10440765 -0.008238759
0.32565668 -0.07701185 0.063265175 -0.13256595 -0.028057313 -0.18986513 -0.18417543 -0.08858758
-0.31993163 0.040218465 -0.10068177 -0.12088321 -0.38646442 0.105338626 -0.2649364 -0.08919804
-0.21214846 0.15624003 -0.06283435 -0.1298324 0.0054965834 -0.030157218 -0.10110631 -0.04410942
-0.02707077 -0.081213474 0.09666296 0.050198156 0.06112039 0.2959598 -0.04229686 -0.09028736
-0.06315299 0.11286855 0.12042289 0.12557758 0.15376097 -0.012737855 0.014309631 0.053809274
-0.083908744 0.09801193 -0.12920079 -0.15807518 -0.04697148 0.05580724 -0.35263526 -0.128682
0.05624112 -0.09091875 0.22311088 -0.24122113 0.17551242 -0.14086425 -0.19521308 0.1048992
0.033758666 -0.08640218 -0.09767793 0.19437198 -0.23810874 0.29604253 0.09654469 0.14193761
-0.014325989 -0.14979383 0.012257852 0.17439228 0.06274346 -0.09892965 -0.002926427 0.05702669
0.24503629 -0.14072457 -0.16516148 -0.07523339 0.06861467 -0.024777083 -0.06791319 0.18218511
0.123670705 0.13423163 0.2133692 -0.03534424 -0.026140565 -0.06617992 0.066069394 -0.1245639
-0.2678648 0.045976646 0.45378187 -0.11042545 0.24917574 -0.18848805 -0.28799564 0.026800202

context_transformer_0/ffn_layer_3/intermediate_dense/einsum/Einsum;context_transformer_0/ffn_layer_3/intermediate_dense/Relu;context_transformer_0/ffn_layer_3/intermediate_dense/add f4 [32]
00000000: 3918 b2bd 342a 423d da34 0a3d d489 9cbd
00000010: 7ac2 4cbe 09c8 d0bd b625 9cbe 0d41 8ebe
00000020: b1a0 73be 5db4 53be 8694 febd 312a 0dbe
00000030: c724 94bc fd54 1abe 6517 13be 19b3 9abe
00000040: 5ffd 43be 87be 12be d801 1fbe a075 88bd
00000050: 02b5 32be 5a74 08be 99ca 5bbe 7c57 94be
00000060: 2d22 acbe 0291 07be dc18 17be e497 e2bd
00000070: be4c 81bd 9fb2 e3bd d9d4 8ebe d566 97bd
-0.08696026 0.04740353 0.03374181 -0.07643476 -0.19996062 -0.10194404 -0.3049752 -0.27784005
-0.23791768 -0.20674272 -0.12430672 -0.13785626 -0.018083943 -0.15071483 -0.14364393 -0.30214766
-0.19139622 -0.14330493 -0.15528047 -0.0666306 -0.17451862 -0.13325635 -0.21464004 -0.28972995
-0.33619824 -0.1323891 -0.14755577 -0.11064127 -0.063134655 -0.11118054 -0.27896765 -0.073926605
