.dart_tool/chrome-device/Default/optimization_guide_prediction_model_downloads/65d454a8-bbe6-49a7-ab7c-4aefec3d2c05/model.tflite (tflite, 410364 bytes, 166 tensors)

context_transformer_0/bottleneck_input/norm/add f4 [32]
-0.11346785 -0.021625098 0.034789905 0.027506668 -0.081986696 -0.03239742 -0.03494504 -0.15976496
-0.012014257 -0.07660498 -0.0027373703 0.029255891 0.13010061 0.07685894 0.045858555 -0.0049570953
0.054600596 0.041263685 -0.021126565 0.040352985 0.021743605 -0.08140776 -0.0046930495 0.05211857
0.009687796 0.04115774 -0.1164722 -0.08735167 0.016420815 -0.12514716 0.051464945 0.006061805
00000000: d561 e8bd 1e27 b1bc dc7f 0e3d aa55 e13c
00000010: a4e8 a7bd 28b3 04bd 8822 0fbd 6d99 23be
00000020: 72d7 44bc 12e3 9cbd 7465 33bb 0daa ef3c
00000030: 1839 053e 3868 9d3d 2ed6 3b3d 216f a2bb
00000040: e0a4 5f3d 1c04 293d 9e11 adbc 2c49 253d
00000050: a51f b23c 1db9 a6bd 27c8 99bb 487a 553d
00000060: 90b9 1e3c 0595 283d fa88 eebd 6fe5 b2bd
00000070: f284 863c 9426 00be e8cc 523d 1ba2 c63b

context_transformer_1/bottleneck_input/norm/add f4 [32]
0.11253813 -0.028844737 -0.07023174 0.016892757 -0.09663506 0.2277047 -0.15708892 -0.40281856
0.15031219 -0.033622775 0.026714168 0.24212214 0.25274858 -0.028576609 -0.011672814 0.09969093
0.14271638 0.11170475 -0.039938383 0.20378262 0.024743684 -0.05369462 -0.04191424 0.09247357
-0.132566 0.121442206 -0.08190713 -0.08479096 0.039856054 -0.086445525 0.2007147 0.19546258
00000000: 647a e63d cc4b ecbc a9d5 8fbd ae62 8a3c
00000010: 9ae8 c5bd 6c2b 693e ebdb 20be 3c3e cebe
00000020: 70eb 193e 09b8 09bd acd7 da3c deee 773e
00000030: 4368 813e 7e19 eabc 553f 3fbc c22a cc3d
00000040: 3e24 123e 76c5 e43d 6e96 23bd 64ac 503e
00000050: 44b3 ca3c e4ee 5bbd 44ae 2bbd c862 bd3d
00000060: 62bf 07be b1b6 f83d edbe a7bd e2a6 adbd
00000070: 1a40 233d 5a0a b1bd 2888 4d3e 5827 483e

mention_transformer_0/bottleneck_input/norm/add f4 [32]
0.06653687 -0.018275078 -0.10373121 -0.021602277 0.10174289 -0.06329457 0.10213836 0.054656386
0.16373244 0.037218675 0.022092022 -0.05088339 0.1411893 -0.026286036 -0.11555475 -0.07758497
0.041036665 0.35500383 0.24431615 -0.119021416 0.13922681 0.18969627 -0.024679828 -0.05266442
0.20208862 -0.07478642 0.20654139 -0.03296328 0.17086609 -0.018580643 -0.074248806 0.027096637
00000000: 7c44 883d 9eb5 95bc 0771 d4bd 42f7 b0bc
00000010: 945e d03d 95a0 81bd eb2d d13d 60df 5f3d
00000020: 7aa9 273e 9c72 183d 54fa b43c 1a6b 50bd
00000030: ee93 103e d055 d7bc f8a7 ecbd dee4 9ebd
00000040: 1016 283d 10c3 b53e 032e 7a3e 80c1 f3bd
00000050: 7991 0e3e bd3f 423e 5a2d cabc a6b6 57bd
00000060: 52f0 4e3e 9f29 99bd 967f 533e 8104 07bd
00000070: 85f7 2e3e 6f36 98bc c20f 98bd c4f9 dd3c

mention_transformer_1/bottleneck_input/norm/add f4 [32]
-0.31326002 -0.30341768 -0.42480397 0.30209625 0.0041827713 0.1677131 0.21003905 0.15127935
-0.03351271 0.5230505 0.31807053 -0.1589206 0.13688831 -0.064950995 -0.09218361 -0.20857345
-0.020542314 -0.21771193 -0.20090175 0.25544143 -0.22740325 0.09887889 0.19965014 0.20174468
0.28442377 0.30356035 -0.019608852 0.5000744 0.38023725 -0.15089369 -0.048143566 -0.5864502
00000000: 9e63 a0be 9059 9bbe e87f d9be 5cac 9a3e
00000010: a10f 893b fcbc 2b3e 7a14 573e f9e8 1a3e
00000020: a044 09bd a3e6 053f 24da a23e 15bc 22be
00000030: 732c 0c3e 0705 85bd c3ca bcbd 4794 55be
00000040: 5b48 a8bc e0ef 5ebe 30b9 4dbe 38c9 823e
00000050: 66dc 68be 0481 ca3d 1671 4c3e 2896 4e3e
00000060: fe9f 913e 436c 9b3e bea2 a0bc e004 003f
00000070: 75ae c23e e083 1abe 3032 45bd 9a21 16bf

context_transformer_0/attention/value/add;context_transformer_0/attention/value/einsum/Einsum;context_transformer_0/attention/value/add/ReadVariableOp/resource f4 [32]
-0.059536953 0.0065513975 0.045558322 -0.0076695904 -0.0038714444 -0.022464188 -0.019256277 -0.00677187
-0.012030498 -0.044499055 0.053860314 -0.022861475 -0.04493579 0.004002417 0.007779576 -0.03617243
0.01881881 -0.05836031 0.03310265 0.011908761 -0.01546493 -0.03320121 0.029030921 0.036963966
0.03311111 -0.016903037 0.06286054 0.031775463 0.00096610637 0.043339483 0.08579856 -0.050378945
00000000: 05dd 73bd 1bad d63b 5d9b 3a3d 3051 fbbb
00000010: 0fb8 7dbb d106 b8bc 57bf 9dbc 90e6 ddbb
00000020: 911b 45bc a444 36bd a29c 5c3d fd47 bbbc
00000030: 970e 38bd b526 833b d0eb fe3b 8b29 14bd
00000040: e829 9a3c 380b 6fbd a596 073d f71c 433c
00000050: 9e60 7dbc fefd 07bd 41d2 ed3c 8767 173d
00000060: 849f 073d 3d78 8abc 07bd 803d fd26 023d
00000070: 4d42 7d3a be84 313d 28b7 af3d 275a 4ebd

context_transformer_0/bottleneck_input/norm/mul f4 [32, 32]
0.27227464 0.014205816 -0.5470817 0.027620312 -0.28622773 -0.3490338 -0.09100776 -0.12703182
0.1576439 0.18225832 -0.41398323 -0.119050115 -0.12136575 0.29458734 -0.07644182 0.19892594
-0.22436863 -0.07258223 0.17954406 0.012071793 0.36897835 -0.12113615 0.11263063 0.4107209
-0.23940395 -0.044218108 -0.26587492 0.037642296 -0.1345157 0.3508246 0.08165907 -0.12249141
0.16133252 0.022642743 0.02824973 -0.1339035 -0.109307244 -0.3087184 0.045507472 -0.12980333
0.017380316 0.060785484 0.14634484 -0.1326187 -0.05526953 -0.016415669 0.06444354 -0.06332818
-0.13410518 -0.033116292 0.11858854 -0.12476692 0.05621149 0.17705147 0.043587185 0.2637537
-0.0017246024 0.12110268 -0.14405061 0.07229187 0.09074736 0.09451098 0.07263114 -0.06725238
0.22392675 0.22130057 -0.015546616 0.31297824 0.612127 -0.010762785 -0.0558442 0.2591814
-0.08321546 -0.2077583 -0.21874101 -0.02893755 0.081150725 0.14614837 -0.14062342 -0.19315246
-0.13925004 -0.111949876 0.058538456 0.066465765 0.033468716 -0.18925852 0.09025274 0.09886501
0.054713435 0.13484061 0.20053987 -0.12904541 0.015648177 0.071782045 0.05444286 0.3600171
-0.0518552 0.14443244 -0.12804712 -0.002163619 0.2697067 0.08292823 -0.039426487 -0.13734286
0.15653615 0.118061185 -0.07072475 -0.07765466 0.08817959 -0.043869033 -0.18629579 -0.062034175
0.09513509 -0.19057022 0.05437324 0.1177133 0.16562214 0.051068902 0.16782601 -0.038968977
-0.20331289 -0.10495494 -0.045472167 0.09352646 0.13135958 -0.28598472 -0.25340277 0.030538853
0.03433343 -0.20512187 0.26807556 -0.022408033 0.09729737 -0.037934028 -0.14769237 -0.17444341
0.07905112 0.13655052 0.01463071 -0.18676773 -0.02279431 -0.1868333 0.078881346 -0.21178535
-0.19805677 0.14417937 0.03531918 0.045644313 -0.12824549 0.2163589 -0.07653857 -0.12139189
0.095055394 0.051481515 0.08448217 -0.20415325 0.023282625 0.15720643 -0.11884775 0.056849267
0.333352 0.37488055 0.037213698 0.042352967 -0.034697313 -0.093524046 0.12057732 0.056099035
-0.15661085 0.0025781419 -0.011689862 0.10022106 0.009881957 0.08831909 -0.10590531 0.13427074
0.3156472 -0.2988929 0.07219405 0.11107014 0.004511558 -0.1242194 -0.044197354 0.13672882
0.07340551 -0.1762418 0.119163185 0.18189047 0.48894033 -0.2309405 0.035214845 0.11009422
0.71689117 0.08000194 -0.30410793 0.3604235 0.7929645 0.047832943 0.17571747 -0.6881994
-0.02569892 -0.17122753 -0.24072371 -0.05052009 -0.27088347 -0.11486942 0.07287448 0.2175693
-0.21875358 -0.073124155 0.16928326 -0.015283132 0.020214492 0.14843816 -0.37976885 0.70451844
-0.34289116 0.053399384 0.06102953 0.12460519 0.14959982 -0.109977834 0.23663852 0.40350768
0.04245944 0.05581672 0.24025844 -0.10141357 -0.096053086 0.08620192 -0.35046744 -0.004496707
0.048385844 0.04997408 0.1347637 -0.042542215 -0.05076879 0.07186758 -0.058487356 -0.013622432
-0.2743373 0.050133765 0.05154522 -0.09158959 -0.21892256 0.11166106 0.19667968 -0.008631177
-0.19904195 0.0995475 0.019426307 -0.16058332 0.00668691 -0.08056962 0.08766048 -0.05327602
00000000: 9567 8b3e 83bf 683c 8c0d 0cbf fe43 e23c
00000010: 718c 92be 8fb4 b2be 4762 babd a114 02be
00000020: 676d 213e eda1 3a3e 9cf5 d3be 8cd0 f3bd
00000030: 9b8e f8bd 27d4 963e 878d 9cbd 3eb3 4b3e
00000040: e4c0 65be fea5 94bd 66da 373e c5c8 453c
00000050: bbea bc3e 3b16 f8bd e3aa e63d 034a d23e
00000060: 4f26 75be 0c1e 35bd c220 88be cf2e 1a3d
00000070: 7cbe 09be 489f b33e df3c a73d c7dc fabd
00000080: 5a34 253e 467d b93c fa6b e73c 001e 09be
00000090: 7adc dfbd 5710 9ebe 0b66 3a3d 2aeb 04be
000000a0: 2a61 8e3c 33fa 783d 6cdb 153e 32cd 07be
000000b0: 4d62 62bd 277a 86bc fafa 833d 34b2 81bd
000000c0: de52 09be f3a4 07bd 8cde f23d cd85 ffbd
000000d0: 053e 663d fb4c 353e 7a88 323d ba0a 873e
000000e0: 0e0c e2ba af04 f83d 0182 13be c30d 943d
000000f0: c0d9 b93d f98e c13d a3bf 943d 9ebb 89bd
00000100: 0e4d 653e 9e9c 623e 3cb7 7ebc af3e a03e
00000110: 5bb4 1c3f 6456 30bc e3bc 64bd 6db3 843e
00000120: de6c aabd 97be 54be a5fd 5fbe 710e edbc
00000130: 5a32 a63d eba7 153e 96ff 0fbe c2c9 45be
00000140: 9097 0ebe fa45 e5bd 05c6 6f3d 341f 883d
00000150: 7e16 093d fccc 41be 6ed6 b83d bd79 ca3d
00000160: 321b 603d a813 0a3e 535a 4d3e 7b24 04be
00000170: 9b30 803c 7702 933d 7aff 5e3d 2954 b83e
00000180: 1e66 54bd 19e6 133e c91e 03be 81cb 0dbb
00000190: ff16 8a3e 47d6 a93d ab7d 21bd 9ba3 0cbe
000001a0: 034b 203e 10ca f13d 23d8 90bd 6809 9fbd
000001b0: 8097 b43d 04b0 33bd 53c4 3ebe 8c17 7ebd
000001c0: 30d6 c23d d724 43be 79b6 5e3d ac13 f13d
000001d0: da98 293e a02d 513d 95da 2b3e ef9d 1fbd
000001e0: 4131 50be 9ef2 d6bd 0641 3abd cd8a bf3d
000001f0: 2083 063e 976c 92be 02be 81be 9e2c fa3c
00000200: 36a1 0c3d 780b 52be 3341 893e 0d91 b7bc
00000210: d843 c73d b660 1bbd ab3c 17be 4ba1 32be
00000220: 8ee5 a13d e6d3 0b3e a5b5 6f3c 0a40 3fbe
00000230: 22bb babc 3b51 3fbe 8b8c a13d 42de 58be
00000240: 65cf 4abe c2a3 133e d8aa 103d 88f5 3a3d
00000250: c952 03be 308d 5d3e 41c0 9cbd 509c f8bd
00000260: 67ac c23d 48de 523d fd04 ad3d 8d0d 51be
00000270: 34bb be3c b9fa 203e 7366 f3bd c7da 683d
00000280: 1dad aa3e 58f0 bf3e 646d 183d 4e7a 2d3d
00000290: c51e 0ebd 8989 bfbd 3ef1 f63d 1ac8 653d
000002a0: 985e 20be 0bf6 283b d686 3fbc b340 cd3d
000002b0: efe7 213c a4e0 b43d e2e4 d8bd 457e 093e
000002c0: 839c a13e 7d08 99be 79da 933d be78 e33d
000002d0: b1d5 933b be66 febd 4908 35bd a402 0c3e
000002e0: a155 963d bb78 34be d40b f43d 7f41 3a3e
000002f0: 6356 fa3e ab7b 6cbe 713d 103d 1479 e13d
00000300: 2e86 373f 0fd8 a33d 09b4 9bbe 6e89 b83e
00000310: b9ff 4a3f 7aec 433d 48ef 333e d62d 30bf
00000320: 8b86 d2bc 4556 2fbe 4780 76be 27ee 4ebd
00000330: 3db1 8abe a940 ebbd 373f 953d 7dca 5e3e
00000340: f000 60be 1ec2 95bd 9758 2d3e 1a66 7abc
00000350: dd98 a53c 2c00 183e 1071 c2be 525b 343f
00000360: 6e8f afbe 50b9 5a3d 1afa 793d 0131 ff3d
00000370: b230 193e 0f3c e1bd 5e51 723e 8f98 ce3e
00000380: f3e9 2d3d 13a0 643d 4f06 763e ebb1 cfbd
00000390: 7bb7 c4bd a28a b03d 7870 b3be 1d59 93bb
000003a0: 3c30 463d 9fb1 4c3d 7fff 093e bf40 2ebd
000003b0: eff2 4fbd 4f2f 933d 7090 6fbd 9f30 5fbc
000003c0: f075 8cbe 1059 4d3d 1521 533d 5393 bbbd
000003d0: 3c2d 60be 8eae e43d 6666 493e c869 0dbc
000003e0: a7d1 4bbe 8fdf cb3d eb23 9f3c f46f 24be
000003f0: de1d db3b af01 a5bd 5687 b33d f537 5abd

context_transformer_0/kq_shared_bottleneck/norm/mul;context_transformer_0/kq_shared_bottleneck/norm/add;context_transformer_0/attention/key/einsum/Einsum;context_transformer_0/attention/key/add;context_transformer_0/attention/value/einsum/Einsum;context_transformer_0/attention/key/add/ReadVariableOp/resource f4 [32]
-0.10461359 0.09233731 0.10788069 -0.12320699 0.10687101 -0.15866633 0.12210383 0.13820444
0.19558172 0.010316953 0.00015102347 0.038309455 0.013555441 0.014619292 0.01009717 -0.07561151
0.05915351 0.06088448 -0.055595376 -0.1277134 0.069531254 0.09195501 0.11981479 -0.10935457
-0.025905665 0.04740092 -0.04980008 0.072949275 -0.0042211306 0.0096734315 0.14326485 -0.08324158
00000000: a63f d6bd 581b bd3d 8df0 dc3d f253 fcbd
00000010: 30df da3d 6d79 22be 9311 fa3d 7785 0d3e
00000020: 9346 483e 7008 293c 0e5c 1e39 60ea 1c3d
00000030: a417 5e3c c185 6f3c 9a6e 253c 35da 9abd
00000040: f34a 723d 0162 793d fab7 63bd 4dc7 02be
00000050: 6766 8e3d e952 bc3d 7561 f53d 4af5 dfbd
00000060: 1e38 d4bc 7827 423d 2bfb 4bbd 6e66 953d
00000070: 6951 8abb 507d 1e3c 05b4 123e 907a aabd

context_transformer_0/kq_shared_bottleneck/norm/mul;context_transformer_0/kq_shared_bottleneck/norm/add;context_transformer_0/attention/key/einsum/Einsum;context_transformer_0/attention/key/add;context_transformer_0/attention/value/einsum/Einsum;context_transformer_0/attention/key/add/ReadVariableOp/resource1 f4 [32, 32]
0.041587364 0.40824246 0.07508381 0.32941756 -0.08585385 0.27869028 -0.04868245 0.08110511
0.18585232 0.016110985 0.060873374 0.15193273 0.014132911 -0.056898877 0.16265434 -0.05502006
-0.16936655 0.42863533 0.042876054 -0.124503784 0.08055567 -0.018619182 -0.09040783 0.23119305
0.20073085 0.23059297 -0.06778282 0.106397204 0.24399588 -0.2917434 -0.05625117 -0.31627214
-0.04773281 -0.36735386 0.07163156 -0.19678096 -0.095699854 0.1961227 -0.097471595 -0.16426924
0.064109765 0.1277606 -0.114663355 -0.22900392 0.24797663 -0.12633665 0.010930104 0.031666912
0.0707805 -0.19522095 -0.0037840665 0.1295118 -0.1965924 -0.18615992 0.018895078 -0.057271708
-0.25607988 0.045026775 -0.08561849 -0.1490912 -0.07244138 0.20402884 -0.14806263 0.27603775
-0.09700963 -0.29649052 0.16604166 -0.124834664 -0.11046843 0.33291128 -0.26187336 -0.20100375
0.116157226 0.15616025 -0.14574969 -0.32596695 0.32974234 -0.26396966 0.11896535 0.08364947
0.0046498966 -0.19956152 -0.035320412 0.11199942 -0.18438244 -0.29511294 0.14321923 0.015617165
-0.21805212 -0.0023601209 -0.25119972 -0.0830123 -0.048403863 0.19561237 -0.41910458 0.31825787
0.046096306 0.42294037 0.07047872 0.36878207 -0.023897082 0.14478126 -0.090745114 0.12430972
0.015114256 -0.046103485 0.055731606 0.17288157 0.0076401713 -0.023953587 0.20645423 -0.06412085
-0.24160083 0.3017291 -0.0020573433 -0.16589351 0.16772056 -0.01262154 -0.04466087 0.21353187
0.23240282 -0.038592692 -0.03600792 0.1955903 0.19240364 -0.32918948 -0.09086966 -0.25203085
-0.13155067 -0.36701176 0.12082842 -0.2228424 -0.0025240935 0.11989397 -0.19809374 -0.16414101
-0.03220228 0.08271746 -0.14971372 -0.24178982 0.2669472 -0.11806775 0.06441438 0.05860982
0.027385743 -0.3198607 -0.07227707 0.11746948 -0.1493128 -0.258159 0.09815692 -0.03220729
-0.24413458 -0.10931676 -0.15962869 -0.09361967 -0.0676268 0.24352753 -0.2576923 0.33816913
0.04077306 0.28274518 -0.21680273 0.11746402 0.30648422 -0.6464025 0.23117246 0.16063048
-0.2669514 -0.24178734 0.034391176 0.32231244 -0.36687732 0.40706939 -0.11529088 -0.12105196
0.05941398 0.060752016 -0.11518916 -0.07825807 0.20892467 0.3050454 -0.22341289 -0.08560422
0.2506807 -0.20474963 0.43323737 0.10747109 0.029153118 -0.15808593 0.5179731 -0.24506381
-0.058028027 -0.40327132 -0.021342363 -0.34673786 0.0001491065 -0.08987014 -0.026329346 -0.108015805
-0.05588371 0.03957667 -0.0867624 -0.15936877 0.049310073 0.022338407 -0.10458688 0.036546037
0.1890212 -0.3224622 -0.031470157 0.13348933 -0.12513904 -0.03651144 0.06238296 -0.16710596
-0.22272499 -0.07878571 0.042391594 -0.14207132 -0.19780618 0.30145258 0.018831894 0.27858078
0.01074165 -0.42708135 -0.112711325 -0.41044354 -0.06832796 -0.09897395 0.17609563 -0.124041334
0.020215701 0.070581 0.05289545 -0.14944045 -0.13941875 0.07514804 -0.23713472 0.072781995
0.3089134 -0.28729618 0.0794167 0.12332096 -0.14349999 0.15082614 -0.008128417 -0.2710108
-0.18168424 0.10290226 0.06765279 -0.18765518 -0.22729297 0.29502487 0.19902495 0.22577381
00000000: 8357 2a3d 2805 d13e 8ac5 993d 6ba9 a83e
00000010: 25d4 afbd 7eb0 8e3e 4067 47bd 701a a63d
00000020: 1250 3e3e 2ffb 833c 5c56 793d 4194 1b3e
00000030: ba8d 673c cc0e 69bd dc8e 263e b75c 61bd
00000040: 6d6e 2dbe 1776 db3e cd9e 2f3d d7fb febd
00000050: 5ffa a43d 4187 98bc be27 b9bd dfbd 6c3e
00000060: 638c 4d3e 9020 6c3e b8d1 8abd c7e6 d93d
00000070: 0eda 793e 645f 95be a067 66bd 6cee a1be
00000080: 7b83 43bd ce15 bcbe 91b3 923d f380 49be
00000090: 49fe c3bd 64d4 483e 309f c7bd 3236 28be
000000a0: fb4b 833d add3 023e 9fd4 eabd 0180 6abe
000000b0: 96ed 7d3e 655e 01be 2e14 333c 2ab5 013d
000000c0: 5ef5 903d 00e8 47be 1afe 77bb be9e 043e
000000d0: 854f 49be b5a0 3ebe dac9 9a3c bd95 6abd
000000e0: e71c 83be ff6d 383d bf58 afbd 5dab 18be
000000f0: 255c 94bd f0ec 503e bb9d 17be d254 8d3e
00000100: fcac c6bd 9bcd 97be d306 2a3e 51a9 ffbd
00000110: 463d e2bd 5973 aa3e 4414 86be edd3 4dbe
00000120: d7e3 ed3d 79e8 1f3e 683f 15be 24e5 a6be
00000130: fdd3 a83e 0827 87be 1ba4 f33d 6a50 ab3d
00000140: 295e 983b db59 4cbe 23ac 10bd f45f e53d
00000150: c0ce 3cbe 0b19 97be 10a8 123e 23df 7f3c
00000160: 0e49 5fbe 42ac 1abb 409d 80be 5a02 aabd
00000170: 2143 46bd 9c4e 483e e094 d6be b2f2 a23e
00000180: 7bcf 3c3d a48b d83e 2657 903d 01d1 bc3e
00000190: d0c3 c3bc 8a41 143e 93d8 b9bd 1896 fe3d
000001a0: c9a1 773c 02d7 3cbd d346 643d de07 313e
000001b0: 675a fa3b 503a c4bc bd68 533e cb51 83bd
000001c0: 3566 77be 3d7c 9a3e 7ed4 06bb fddf 29be
000001d0: f0be 2b3e 93ca 4ebc 51ee 36bd 19a8 5a3e
000001e0: 01fb 6d3e 5f13 1ebd 0a7d 13bd d348 483e
000001f0: 7605 453e 868b a8be df19 babd 300a 81be
00000200: 38b5 06be f7e8 bbbe e474 f73d cc30 64be
00000210: 436b 25bb f88a f53d 16d9 4abe 9514 28be
00000220: 8ae6 03bd c667 a93d 8e4e 19be c097 77be
00000230: 4ead 883e 81cd f1bd b0eb 833d da10 703d
00000240: 1158 e03c c8c4 a3be 0006 94bd d793 f03d
00000250: 74e5 18be 6b2d 84be 7f06 c93d cbeb 03bd
00000260: 6afe 79be 77e1 dfbd b475 23be abbb bfbd
00000270: eb7f 8abd 485f 793e 3ff0 83be 8124 ad3e
00000280: a701 273d fac3 903e 8901 5ebe fa90 f03d
00000290: 80eb 9c3e a27a 25bf 79b8 6c3e 517c 243e
000002a0: dbad 88be 1a97 77be c3dd 0c3d 2306 a53e
000002b0: 58d7 bbbe 666b d03e a01d ecbd 17ea f7bd
000002c0: 135c 733d 1bd7 783d 4be8 ebbd c445 a0bd
000002d0: 59f0 553e e92e 9c3e 59c6 64be 4451 afbd
000002e0: 3959 803e e3a9 51be 4ad1 dd3e ce19 dc3d
000002f0: 85d2 ee3c 47e1 21be e399 043f 02f2 7abe
00000300: ccae 6dbd 9479 cebe 2ed6 aebc a087 b1be
00000310: 7959 1c39 d60d b8bd a4b0 d7bc 6437 ddbd
00000320: 51e6 64bd 251b 223d 7cb0 b1bd 9131 23be
00000330: 5cf9 493d 09ff b63c a531 d6bd 4cb1 153d
00000340: c68e 413e c419 a5be dae6 00bd 6db1 083e
00000350: 7324 00be 058d 15bd 4685 7f3d d31d 2bbe
00000360: 0512 64be 675a a1bd cfa2 2d3d 257b 11be
00000370: b48d 4abe fe57 9a3e 5845 9a3c 24a2 8e3e
00000380: bffd 2f3c 68aa dabe 32d5 e6bd a825 d2be
00000390: 88ef 8bbd dbb2 cabd 6a52 343e 6209 febd
000003a0: 669b a53c c58c 903d e6a8 583d eb06 19be
000003b0: cac3 0ebe 37e7 993d 72d3 72be ba0e 953d
000003c0: e629 9e3e 7c18 93be 39a5 a23d b38f fc3d
000003d0: a9f1 12be 2b72 1a3e 0d2d 05bc edc1 8abe
000003e0: 6f0b 3abe 6cbe d23d 8c8d 8a3d ae28 40be
000003f0: 7dbf 68be 800d 973e 32cd 4b3e 4031 673e

context_transformer_0/kq_shared_bottleneck/norm/mul;context_transformer_0/kq_shared_bottleneck/norm/add;context_transformer_0/attention/query/einsum/Einsum;context_transformer_0/attention/query/add;context_transformer_0/attention/value/einsum/Einsum;context_transformer_0/attention/query/add/ReadVariableOp/resource;context_transformer_0/attention/Mul;context_transformer_0/attention/Mul/y f4 [32]
0.13737994 -0.18102466 -0.21834362 0.16105954 -0.20434205 0.24089856 -0.16487168 -0.12767918
0.021109696 -0.12800494 0.1245755 -0.19917393 -0.04342128 -0.13425215 0.07687605 0.022020137
-0.12788232 -0.13474928 0.13738392 0.20863974 -0.10859955 -0.17859265 -0.23650753 0.21576822
0.14000992 -0.15339573 -0.17701551 0.18536575 0.15064943 0.17156388 0.20458163 -0.20478591
00000000: 54ad 0c3e 875e 39be 7895 5fbe cbec 243e
00000010: 0b3f 51be 1dae 763e 1fd4 28be 55be 02be
00000020: 3eee ac3c ba13 03be 7121 ff3d 40f4 4bbe
00000030: 83da 31bd 6579 09be 3171 9d3d 9363 b43c
00000040: 95f3 02be b7fb 09be 5fae 0c3e a8a5 553e
00000050: 7169 debd fee0 36be 082f 72be 58f2 5c3e
00000060: c35e 0f3e c513 1dbe 8e43 35be 85d0 3d3e
00000070: d843 1a3e 71ae 2f3e d97d 513e 66b3 51be

context_transformer_0/kq_shared_bottleneck/norm/mul;context_transformer_0/kq_shared_bottleneck/norm/add;context_transformer_0/attention/query/einsum/Einsum;context_transformer_0/attention/query/add;context_transformer_0/attention/value/einsum/Einsum;context_transformer_0/attention/query/add/ReadVariableOp/resource;context_transformer_0/attention/Mul;context_transformer_0/attention/Mul/y1 f4 [32, 32]
-0.08197826 -0.030861275 0.09121739 -0.04035454 0.03574376 0.17491338 -0.07638225 0.026271095
0.008918187 0.0001801584 -0.031557586 0.05474806 -0.06500966 -0.1763521 -0.013112444 0.033826005
-0.007088103 0.059068788 0.042024143 -0.07931183 -0.013833589 -0.058842726 0.18371166 0.09503243
0.010301505 0.04127094 -0.11688827 -0.0018679996 0.081697725 -0.023098363 -0.09044167 -0.032526504
0.020111209 0.07054877 0.029822098 0.07542696 -0.0141844135 -0.049279965 0.013840599 -0.038474727
0.0042505134 0.055790074 -0.054075245 -0.008234303 0.108867146 0.10510294 0.087269105 -0.0666323
-0.023626033 -0.044706445 -0.08838952 0.024166077 -0.025129883 -0.020615237 -0.11598888 0.010859695
-0.028206643 -0.073977135 0.017838473 0.02633814 0.01634708 0.041006085 -0.0067250654 0.042522106
0.013767976 0.08086942 0.11976712 0.09791085 -0.040308736 -0.010290035 -0.0031798754 -0.05934822
0.015771706 0.062419247 -0.07674674 -0.00052595726 0.07990937 0.051026855 0.08431123 -0.046711326
-0.04637567 -0.07484026 -0.09274115 -0.04913464 -0.052214585 -0.054125104 -0.014451345 0.044893328
-0.0635482 -0.15571748 -0.047453348 0.022665216 0.021732334 0.0738173 -0.09089597 0.05255122
-0.054715462 -0.049420148 0.086854614 -0.051441282 -0.010903235 0.16333207 -0.052353904 0.01486742
0.007478319 -0.01686466 0.026050864 0.0083076665 -0.075603195 -0.17625752 -0.03856002 0.0725558
-0.024924139 0.027275888 0.07315479 -0.06622375 -0.00967755 -0.045621265 0.19881262 0.07627188
0.003419857 -0.015754113 -0.15230654 -0.0011911822 0.013921551 -0.026073411 -0.0960584 -0.034640394
0.044965055 0.065540075 0.03949503 0.071077965 -0.06842761 -0.07450476 0.037848044 -0.06720025
0.028079716 0.05389768 -0.025037434 -0.039156463 0.09898411 0.08190391 0.06473767 -0.041129116
-0.015218549 -0.078824565 -0.06748904 0.021358764 -0.038787767 -2.836606e-06 -0.078217134 -0.022606816
-0.05969984 -0.13442284 -0.011110795 0.015982775 -0.020214673 0.08302287 -0.03175468 0.057356715
0.050973672 -0.14028062 -0.18286243 -0.1537572 -0.019898342 -0.02011747 0.06247329 0.02739734
0.008320988 -0.03817496 0.14182194 -0.07980808 -0.04600297 0.00539658 -0.15262946 0.06884918
0.054702938 0.049599893 0.114438616 0.113609165 0.036916282 0.09660918 -0.028589156 -0.11779675
0.02576677 0.14866565 0.09272799 -0.06446762 -0.11779394 -0.042723827 0.12419587 -0.046499554
0.057795987 0.04259101 -0.061660368 0.056486636 -0.000120122546 -0.1428661 0.06725822 -0.03130036
0.0010599251 0.033112966 -0.011635286 -0.028536525 0.084252395 0.16256046 0.031907193 -0.06939383
0.019191882 -0.0474278 -0.07597428 0.06390708 -0.006992266 0.043301895 -0.16887209 -0.0762594
-0.023357477 -0.03189848 0.109924756 2.4098522e-06 -0.03515484 0.039056253 0.06838043 0.04016142
0.043747716 0.036980737 -0.09472838 0.024205675 0.035937883 -0.17309886 0.05275974 -0.0022357777
-0.040600725 0.009796857 -0.03839813 0.013936287 0.022115573 0.18570809 0.045186505 -0.10398993
0.026106251 -0.0070977556 -0.08433039 0.0616375 0.027349776 0.04747065 -0.2172416 -0.06684221
0.012149585 0.04268948 0.18708424 0.0014121771 -0.008171957 0.0024315284 0.12780775 0.0101729315
00000000: 38e4 a7bd c9d0 fcbc 2fd0 ba3d cd4a 25bd
00000010: 0d68 123d 7e1c 333e 4c6e 9cbd 7b36 d73c
00000020: 961d 123c e7e8 3c39 8742 01bd 803f 603d
00000030: c923 85bd a595 34be 94d5 56bc 238d 0a3d
00000040: 5143 e8bb 1df2 713d 8221 2c3d 3e6e a2bd
00000050: 47a6 62bc 1205 71bd e91e 3c3e 5da0 c23d
00000060: a5c7 283c b80b 293d 1e63 efbd aad7 f4ba
00000070: 2351 a73d c738 bdbc 7b39 b9bd 833a 05bd
00000080: 43c0 a43c e07b 903d 794d f43c 7379 9a3d
00000090: be65 68bc cad9 49bd aec3 623c ad97 1dbd
000000a0: e447 8b3b 2284 643d 017e 5dbd 2ce9 06bc
000000b0: bdf5 de3d 3640 d73d 25ba b23d 8476 88bd
000000c0: 628b c1bc 1b1e 37bd 9105 b5bd f0f7 c53c
000000d0: 2fdd cdbc 49e1 a8bc 948b edbd ddec 313c
000000e0: 9e11 e7bc 5381 97bd fd21 923c 15c3 d73c
000000f0: 50ea 853c fff5 273d f05d dcbb a92b 2e3d
00000100: 1493 613c de9e a53d 7748 f53d 7c85 c83d
00000110: c61a 25bd 8997 28bc 7565 50bb 1e17 73bd
00000120: aa33 813c 53ab 7f3d 652d 9dbd 65e0 09ba
00000130: 86a7 a33d 8901 513d 5eab ac3d 6054 3fbd
00000140: 6af4 3dbd da45 99bd 12ef bdbd 6741 49bd
00000150: f6de 55bd 49b2 5dbd 56c5 6cbc 11e2 373d
00000160: 8f25 82bd 6774 1fbe 715e 42bd 67ac b93c
00000170: 0208 b23c 862d 973d ab27 babd f33f 573d
00000180: 521d 60bd c86c 4abd d5e0 b13d 18b4 52bd
00000190: 7ba3 32bc 8640 273e 0c71 56bd 7b96 733c
000001a0: b00c f53b c127 8abc 9f68 d53c e11c 083c
000001b0: d9d5 9abd da7c 34be 1df1 1dbd 2398 943d
000001c0: b52d ccbc af71 df3c 2ed2 953d 51a0 87bd
000001d0: 968e 1ebc 5ddd 3abd 8995 4b3e 6e34 9c3d
000001e0: ae1f 603b c50e 81bc 3ff6 1bbe 7121 9cba
000001f0: 3817 643c e897 d5bc 44ba c4bd 16e3 0dbd
00000200: 472d 383d e039 863d 8ac5 213d 5391 913d
00000210: c623 8cbd f495 98bd 8d06 1b3d 49a0 89bd
00000220: 6f07 e63c d0c3 5c3d 4e1b cdbc 8762 20bd
00000230: 2eb8 ca3d 3dbd a73d 2f95 843d 0177 28bd
00000240: 3957 79bc c66e a1bd b237 8abd 93f8 ae3c
00000250: ecdf 1ebd 855c 3eb6 4e30 a0bd ee31 b9bc
00000260: d287 74bd 24a6 09be 0d0a 36bc 4fee 823c
00000270: 3e99 a5bc e507 aa3d 3211 02bd e0ee 6a3d
00000280: c5c9 503d b9a5 0fbe 4a40 3bbe 8772 1dbe
00000290: d901 a3bc 64cd a4bc fee3 7f3d 6370 e03c
000002a0: c154 083c 595d 1cbd c539 113e 6b72 a3bd
000002b0: 9c6d 3cbd cbd5 b03b e64a 1cbe cd00 8d3d
000002c0: 3010 603d 4229 4b3d cb5e ea3d ecab e83d
000002d0: 8735 173d 09db c53d ce33 eabc 6c3f f1bd
000002e0: d514 d33c cf3b 183e 2ce8 bd3d 9907 84bd
000002f0: f33d f1bd 2eff 2ebd 675a fe3d 5176 3ebd
00000300: 7cbb 6c3d e973 2e3d 958f 7cbd 885e 673d
00000310: 4dea fbb8 7e4b 12be adbe 893d ce34 00bd
00000320: 2fed 8a3a 76a1 073d eda1 3ebc 6ec5 e9bc
00000330: 858c ac3d 4076 263e 1eb1 023d 5a1e 8ebd
00000340: 4b38 9d3c a743 42bd 6798 9bbd b7e1 823d
00000350: 611f e5bb 545d 313d ceec 2cbe e32d 9cbd
00000360: 2e58 bfbc fba7 02bd 3b20 e13d f2b8 2136
00000370: 86fe 0fbd 73f9 1f3d 0a0b 8c3d 4d80 243d
00000380: ce30 333d 1d79 173d f400 c2bd fb4a c63c
00000390: 9a33 133d d440 31be 991a 583d 2086 12bb
000003a0: f24c 26bd ff82 203c 5c47 1dbd 0655 643c
000003b0: b82b b53c 432a 3e3e 7c15 393d acf8 d4bd
000003c0: c7dc d53c 4a94 e8bb 69b5 acbd 9a77 7c3d
000003d0: a30c e03c 9670 423d 9574 5ebe 92e4 88bd
000003e0: 0e0f 473c 2adb 2e3d 0393 3f3e cd18 b93a
000003f0: ace3 05bc 475a 1f3b 09e0 023e 5eac 263c

context_transformer_0/ffn_layer_0/intermediate_dense/einsum/Einsum;context_transformer_0/ffn_layer_0/intermediate_dense/Relu;context_transformer_0/ffn_layer_0/intermediate_dense/add f4 [32]
-0.37274665 -0.2113529 -0.28250578 -0.22139785 -0.26117823 -0.21020791 -0.34962 -0.24763128
-0.18210168 -0.3752622 -0.28422955 -0.1566678 -0.3590959 -0.13558716 -0.18972735 -0.25103313
-0.19682732 -0.21330385 -0.13632485 -0.20571084 -0.3427266 -0.12558585 -0.20288447 -0.16689412
-0.15208118 -0.26347938 -0.1228846 -0.16498294 -0.20119183 -0.030881172 -0.13794939 -0.2543886
00000000: a6d8 bebe e56c 58be 99a4 90be 1eb6 62be
00000010: 27b9 85be be40 57be 6501 b3be 0e93 7dbe
00000020: dd78 3abe 5e22 c0be 8986 91be 866d 20be
00000030: 6bdb b7be 5cd7 0abe e347 42be 6a87 80be
00000040: 1a8d 49be 536c 5abe be98 0bbe dda5 52be
00000050: dc79 afbe 9499 00be f2c0 4fbe 4be6 2abe
00000060: 2bbb 1bbe c5e6 86be ecaa fbbd 4af1 28be
00000070: 3b05 4ebe 83fa fcbc 9b42 0dbe 393f 82be

context_transformer_0/attention/norm/mul;context_transformer_0/attention/norm/add;context_transformer_0/ffn_layer_0/intermediate_dense/einsum/Einsum;context_transformer_0/ffn_layer_0/intermediate_dense/Relu;context_transformer_0/ffn_layer_0/intermediate_dense/add f4 [32, 32]
0.12544699 0.0638509 -0.015536073 0.2094098 -0.26606792 -0.2271404 -0.15633765 -0.08771798
-0.12977895 0.044923868 0.24646436 -0.04383172 -0.122047864 -0.22751892 -0.39558643 -0.09876871
0.03404586 -0.21329609 -0.06976585 0.033309307 -0.23209 0.09902146 -0.2285221 -0.11172707
-0.14773847 0.18530774 0.42955524 0.18975157 -0.09410563 -0.08008806 -0.08163034 -0.10544699
0.2747817 0.06783912 -0.36695176 -0.16952896 0.21633695 0.11867799 0.015365477 0.23401481
-0.15759133 0.038768705 0.13972385 0.07053994 0.18760696 -0.17419085 -0.1090041 -0.07009215
0.05082656 0.35692042 -0.32787994 -0.09330944 0.08690039 0.3027055 -0.014771579 0.07157038
0.014448676 -0.21705635 0.0946776 0.09338109 -0.02795803 0.2567998 0.022799766 -0.038404055
-0.26331997 -0.017023453 0.120368496 -0.4105029 -0.16599965 -0.11969623 -0.023726255 0.115572326
0.045715284 0.09790357 0.29427922 0.11644537 0.072242305 -0.08463095 -0.48989356 -0.23937121
-0.16323715 -0.045574658 -0.066761255 0.10349474 0.1340737 -0.22020178 0.20238023 0.060345557
-0.18811207 0.060745414 -0.089653894 -0.027970577 -0.0059184805 0.16491093 -0.26762053 -0.18332288
0.16749904 0.35797524 0.19729017 -0.12261436 -0.088420264 -0.2971544 -0.018111024 0.08287954
0.2995791 0.044150542 -0.10582867 -0.036052372 -0.09972393 0.11910143 0.41701382 -0.2609682
0.049204074 0.20616782 -0.17115094 -0.038976714 0.20224391 -0.07241721 -0.037160337 0.18534546
0.026810111 0.0657255 0.028224226 0.06623858 0.021683957 0.11888504 -0.23421133 0.09034088
0.13922332 0.17122687 -0.101386316 0.14984775 0.1079867 -0.011522972 -0.29511634 0.4750747
0.04885446 -0.055298652 0.067074545 -0.1669508 -0.04667502 -0.110542245 0.08286384 -0.08249353
0.14145574 -0.06063811 0.033766247 -0.04720609 0.03303523 0.41117078 -0.0835474 -0.1833167
-0.118239805 -0.073061064 0.13641764 -0.0074282857 0.12407112 0.14301808 -0.035310905 -0.25156233
0.34378523 -0.20352341 -0.09328015 0.13136584 0.034394454 -0.030790327 -0.0137297725 0.17870268
-0.15938167 0.08269833 0.058863077 -0.13570479 0.2671867 0.24343349 -0.018563975 -0.07571215
-0.080302864 -0.24498402 0.39212704 -0.045110065 -0.2693759 -0.023506833 -0.027722321 -0.05268741
-0.18662414 0.13618442 0.03861543 0.20200168 -0.38488388 0.18703006 -0.0509342 -0.18319042
-0.08524332 -0.05342644 -0.061965168 0.050465297 0.50117886 -0.37986267 -0.4165448 0.25656742
-0.025192108 0.476104 0.6630801 0.10050742 -0.2768465 -0.24514626 0.16767386 0.30058807
-0.32389402 -0.2847996 0.13864118 0.12132273 0.40324092 0.006400076 0.23250419 -0.0545639
0.2021787 -0.106839254 0.4004172 0.24537505 -0.08658677 0.32103184 0.00612402 0.14822043
-0.042063802 -0.05102139 -0.17340888 0.17599776 -0.1251813 0.17832331 -0.46022397 0.2638367
-0.07475069 -0.025816387 -0.08780487 -0.18130574 0.34036118 -0.30723083 -0.3620159 -0.047325004
-0.23350716 -0.07856626 0.20699356 0.09264494 0.11789107 0.07273792 0.24259935 0.19952366
0.13698737 0.039696965 0.036668487 0.5387692 0.118985824 -0.13029407 -0.4080812 -0.09900423
00000000: 2d75 003e 43c4 823d 038b 7ebc 866f 563e
00000010: 0e3a 88be 7e97 68be fa16 20be 7ca5 b3bd
00000020: c6e4 04be 1702 383d 2761 7c3e e488 33bd
00000030: 3bf4 f9bd b8fa 68be 4e8a cabe 4047 cabd
00000040: ac73 0b3d 4a6a 5abe 66e1 8ebd 576f 083d
00000050: 00a9 6dbe c3cb ca3d b301 6abe 29d1 e4bd
00000060: c148 17be 50c1 3d3e aaee db3e 3c4e 423e
00000070: 74ba c0bd 3505 a4bd cf2d a7bd 97f4 d7bd
00000080: 30b0 8c3e 3def 8a3d 1ae1 bbbe 0099 2dbe
00000090: 6f87 5d3e 720d f33d 7bbf 7b3c 94a1 6f3e
000000a0: 9f5f 21be efcb 1e3d c513 0f3e 3e77 903d
000000b0: 0a1c 403e 165f 32be 8b3d dfbd 798c 8fbd
000000c0: 832f 503d 46be b63e e1df a7be 0519 bfbd
000000d0: d5f8 b13d 37fc 9a3e 7e04 72bc 7e93 923d
000000e0: 24ba 6c3c 0544 5ebe 54e6 c13d 963e bf3d
000000f0: 3d08 e5bc 437b 833e 93c6 ba3c 924d 1dbd
00000100: e0d1 86be c574 8bbc c283 f63d 702d d2be
00000110: d0fb 29be 4c23 f5bd 905d c2bc 2fb1 ec3d
00000120: f33f 3b3d ab81 c83d c4ab 963e e97a ee3d
00000130: c6f3 933d fe52 adbd 54d3 fabe ba1d 75be
00000140: a427 27be 7eac 3abd 20ba 88bd 0df5 d33d
00000150: 9e4a 093e 937c 61be c33c 4f3e e72c 773d
00000160: 73a0 40be 2fd0 783d 769c b7bd 8d22 e5bc
00000170: d0ef c1bb 69de 283e 8f05 89be feb8 3bbe
00000180: de84 2b3e 8848 b73e 6f06 4a3e 3d1d fbbd
00000190: af15 b5bd 9f24 98be 925d 94bc c0bc a93d
000001a0: 6f62 993e 33d7 343d b4bc d8bd a7ab 13bd
000001b0: 0f3c ccbd 73eb f33d d682 d53e a09d 85be
000001c0: 368a 493d a81d 533e 3142 2fbe 0ca6 1fbd
000001d0: 0719 4f3e 794f 94bd 7035 18bd 33cb 3d3e
000001e0: e1a0 db3c 179b 863d 7e36 e73c 18a8 873d
000001f0: 8ea2 b13c 007a f33d 18d5 6fbe a404 b93d
00000200: 8f90 0e3e 1956 2f3e a1a3 cfbd b071 193e
00000210: 2228 dd3d d9ca 3cbc 7d19 97be fe3c f33e
00000220: 9d1b 483d d780 62bd 615e 893d 27f5 2abe
00000230: 4e2e 3fbd f963 e2bd 84b4 a93d 5ef2 a8bd
00000240: c6d9 103e ab5f 78bd 7a4e 0a3d 2c5b 41bd
00000250: f34f 073d fa84 d23e e61a abbd 5fb7 3bbe
00000260: b627 f2bd 0aa1 95bd 11b1 0b3e fa68 f3bb
00000270: 0019 fe3d 5573 123e 2ba2 10bd c7cc 80be
00000280: 9e04 b03e 7168 50be aa09 bfbd c484 063e
00000290: 33e1 0c3d ff3b fcbc d7f2 60bc d6fd 363e
000002a0: f334 23be be5d a93d 691a 713d 32f6 0abe
000002b0: b2cc 883e a146 793e 7a13 98bc f90e 9bbd
000002c0: d475 a4bd 17dd 7abe e0c4 c83e 55c5 38bd
000002d0: a3eb 89be 6791 c0bc ec19 e3bc c1ce 57bd
000002e0: 661a 3fbe ee73 0b3e 372b 1e3d 87d9 4e3e
000002f0: 800f c5be cf84 3f3e 61a0 50bd 4596 3bbe
00000300: 0d94 aebd afd5 5abd 30cf 7dbd b3b4 4e3d
00000310: 424d 003f 5c7d c2be 5c45 d5be ce5c 833e
00000320: ae5f cebc e7c3 f33e 9ebf 293f d6d6 cd3d
00000330: d3be 8dbe 9f07 7bbe b2b2 2b3e aee6 993e
00000340: 70d5 a5be 41d1 91be f4f7 0d3e 0d78 f83d
00000350: 9875 ce3e bbb7 d13b 9415 6e3e 657e 5fbd
00000360: ef07 4f3e 8ace dabd 7c03 cd3e 9943 7b3e
00000370: 6854 b1bd 495e a43e 01ac c83b 19c7 173e
00000380: 184b 2cbd cefb 50bd 1992 31be c238 343e
00000390: 872f 00be 639a 363e 7aa2 ebbe 9b15 873e
000003a0: e416 99bd e37c d3bc 0ad3 b3bd 36a8 39be
000003b0: d243 ae3e 5c4d 9dbe 265a b9be ddd7 41bd
000003c0: 801c 6fbe 59e7 a0bd 1ff6 533e a1bc bd3d
000003d0: e070 f13d 9ef7 943d f76b 783e ee4f 4c3e
000003e0: 6b46 0c3e 4999 223d b231 163d c7ec 093f
000003f0: d7ae f33d cf6b 05be 05f0 d0be bbc2 cabd

context_transformer_0/ffn_layer_1/intermediate_dense/einsum/Einsum;context_transformer_0/ffn_layer_1/intermediate_dense/Relu;context_transformer_0/ffn_layer_1/intermediate_dense/add f4 [32]
-0.20256124 -0.3423183 -0.029873276 -0.1262409 -0.2798462 -0.13722607 -0.1440934 -0.19590922
-0.24364905 -0.16884919 -0.20388065 -0.029085336 -0.13275746 -0.2297355 -0.21035467 -0.26680973
-0.23960367 -0.14416446 -0.26426232 -0.12346803 -0.1546311 -0.26714057 -0.38390762 -0.1734441
-0.17362902 -0.33098996 -0.1824626 -0.3066595 -0.22273691 -0.2815189 -0.20180973 -0.08916233
00000000: 376c 4fbe 5844 afbe cdb8 f4bc 4b45 01be
00000010: 0048 8fbe fe84 0cbe 388d 13be 6d9c 48be
00000020: 237f 79be cde6 2cbe 17c6 50be 5f44 eebc
00000030: 92f1 07be c83f 6bbe 3767 57be 499b 88be
00000040: aa5a 75be d99f 13be 644d 87be cedc fcbd
00000050: 9d57 1ebe a6c6 88be 8a8f c4be 559b 31be
00000060: cecb 31be 8477 a9be 7ad7 3abe 7902 9dbe
00000070: 2515 64be 3f23 90be 36a7 4ebe bd9a b6bd

context_transformer_0/ffn_layer_0/norm/mul;context_transformer_0/ffn_layer_0/norm/add;context_transformer_0/ffn_layer_1/intermediate_dense/einsum/Einsum;context_transformer_0/ffn_layer_1/intermediate_dense/Relu;context_transformer_0/ffn_layer_1/intermediate_dense/add f4 [32, 32]
0.3371857 -0.06367166 0.013570783 -0.03068756 0.079382725 -0.0064822733 -0.27102578 0.11114563
0.21902682 0.28387758 0.12395739 0.01978453 -0.11382441 0.023100818 0.012063431 -0.47047716
-0.31116307 -0.028465843 0.1752931 0.057682984 0.115218446 -0.03892655 -0.090353094 0.1737259
0.22893284 0.1685626 0.042777035 0.11869772 0.20611571 -0.08055322 0.12494248 0.04616961
-0.05489877 0.04007369 0.15604095 -0.36506096 -0.30342823 -0.048364103 -0.21206775 0.018361637
-0.28121647 -0.34433264 0.08751723 -0.0453698 -0.042915564 -0.08021536 0.04860107 0.21056664
-0.10110808 -0.00070782815 0.065246895 0.17868584 0.30471954 0.26782298 -0.079588816 0.0031543209
-0.118297115 0.079631895 -0.080017395 0.24379195 -0.17603768 0.20147544 0.18832031 0.032628436
-0.00076476735 -0.0756986 -0.17896484 0.22552535 -0.06425778 0.5312358 -0.21158418 0.11625657
-0.08793631 0.3097571 -0.23925194 -0.08631631 -0.17877553 0.10231163 -0.02400298 -0.33638352
-0.1188953 -0.14404279 0.02596791 -0.14467324 -0.19124988 -0.14355317 -0.059824158 0.025046935
-0.13271096 0.05728577 0.3229058 0.033865243 0.11896207 0.0384254 -0.033328343 0.06860918
0.00073147606 0.01750962 -0.17189388 0.09393375 -0.33510417 0.039566446 0.056223646 0.18008971
-0.20022522 -0.15450764 0.12957634 -0.050658267 -0.059315052 -0.18686758 0.12422193 0.17278524
0.39692062 0.3030568 0.13481267 -0.19127828 0.14707758 0.22969906 -0.02773759 0.1210052
0.21840441 -0.18616828 0.13341452 0.03268803 0.014118822 0.5562293 -0.041598845 0.08532121
0.09734341 0.12166291 -0.023584008 0.07212228 0.36716244 0.037503086 -0.040103123 0.40144426
0.1398002 0.3072961 -0.14821391 -0.21863098 -0.03980145 0.11036812 -0.25611648 0.018029574
-0.20232269 -0.19502202 -0.073318474 -0.09216039 0.083466075 0.12025512 0.11747187 0.047484465
0.1305456 -0.4928178 0.22064468 0.0740832 0.20045145 0.066088915 0.14854582 -0.08050374
-0.016474186 0.19061217 0.08442572 -0.04962414 -0.43472543 -0.022939239 0.000158741 -0.007931677
0.11051392 0.022447344 0.22949128 0.004843631 -0.04999248 0.100206554 0.060277328 -0.0064721303
0.12009913 -0.030906623 -0.015187176 -0.23093931 0.010132573 -0.10089873 -0.35109815 -0.04963124
0.06685593 0.19159876 0.06574773 0.4434533 -0.03691199 -0.06709973 -0.08483754 0.15589035
-0.1203327 -0.058218237 -0.10951208 0.18518664 0.36060202 0.18040504 0.28375453 0.12582591
-0.14177133 0.014436993 0.039156724 -0.17809327 0.048680294 0.15487856 0.1461823 0.09985635
0.0060888426 -0.15915911 0.09407689 -0.12231371 -0.03677173 0.18687803 0.00964218 0.105386026
-0.46648523 -0.24230048 0.045984536 0.21205233 -0.121613294 0.018416846 -0.019521313 0.18519622
0.06983212 -0.038012486 0.1468433 -0.3067634 0.4626043 -0.13505936 0.063514255 0.15989855
-0.17669262 0.1831031 0.12430125 -0.037826914 0.07273948 0.23396829 -0.20124838 -0.20219088
-0.3438058 0.21445546 0.18744373 -0.05908901 -0.022305297 -0.17539456 -0.18650387 -0.027222335
0.21495993 0.05625719 0.080296844 0.092149325 -0.5374467 0.4528571 0.19403762 0.040608235
00000000: 9ba3 ac3e 4a66 82bd fd57 5e3c 7a64 fbbc
00000010: 6993 a23d 4069 d4bb e4c3 8abe 52a0 e33d
00000020: 9148 603e 6758 913e 5fdd fd3d 2b13 a23c
00000030: c61c e9bd ed3d bd3c b2a5 453c 62e2 f0be
00000040: c450 9fbe 3331 e9bc 0980 333e fe44 6c3d
00000050: a6f7 eb3d 7271 1fbd 0b0b b9bd 34e5 313e
00000060: 5f6d 6a3e ad9b 2c3e f936 2f3d ca17 f33d
00000070: ff0f 533e 16f9 a4bd d8e1 ff3d 581c 3d3d
00000080: 88dd 60bd 4f24 243d 33c9 1f3e 45e9 babe
00000090: f25a 9bbe 7019 46bd 4a28 59be 256b 963c
000000a0: 9bfb 8fbe 5e4c b0be 3c3c b33d afd5 39bd
000000b0: 3bc8 2fbd f347 a4bd ea11 473d c89e 573e
000000c0: c111 cfbd 8b8d 39ba 2aa0 853d 6cf9 363e
000000d0: 3304 9c3e 1820 893e 76ff a2bd b9b8 4e3b
000000e0: c245 f2bd 0c16 a33d 29e0 a3bd 99a4 793e
000000f0: 3943 34be 944f 4e3e 0ad7 403e 65a5 053d
00000100: ab7a 48ba de07 9bbd 8f42 37be 1ef0 663e
00000110: 9599 83bd 12ff 073f 86a9 58be ed17 ee3d
00000120: f417 b4bd 7c98 9e3e 76fe 74be 9bc6 b0bd
00000130: ef10 37be c388 d13d e6a1 c4bc 763a acbe
00000140: 617f f3bd f47f 13be a8ba d43c 3925 14be
00000150: 02d7 43be 9aff 12be 2d0a 75bd 3b2f cd3c
00000160: 62e5 07be 7ca4 6a3d e953 a53e 48b6 0a3d
00000170: 63a2 f33d f463 1d3d 4d83 08bd f882 8c3d
00000180: 87c0 3f3a 5670 8f3c f304 30be 5760 c03d
00000190: c692 abbe 6d10 223d c44a 663d 7069 383e
000001a0: d707 4dbe 4037 1ebe a9af 043e 0b7f 4fbd
000001b0: 57f4 72bd 375a 3fbe 1168 fe3d 9dee 303e
000001c0: 2e39 cb3e 432a 9b3e 550c 0a3e 74de 43be
000001d0: 819b 163e 3b36 6b3e f139 e3bc 93d1 f73d
000001e0: 68a5 5f3e e6a2 3ebe d19d 083e e2e3 053d
000001f0: a252 673c 0b65 0e3f 8d63 2abd e3bc ae3d
00000200: fb5b c73d 672a f93d 4033 c1bc d9b4 933d
00000210: b7fc bb3e d69c 193d 2c43 24bd 1a8a cd3e
00000220: c927 0f3e ea55 9d3e 63c5 17be cde0 5fbe
00000230: d806 23bd ae08 e23d b321 83be c2b2 933c
00000240: ae2d 4fbe dab3 47be ff27 96bd 96be bcbd
00000250: 43f0 aa3d 5148 f63d 1795 f03d 127f 423d
00000260: bfad 053e 9d52 fcbe aef0 613e efb8 973d
00000270: 2543 4d3e a059 873d 651c 183e 25df a4bd
00000280: dff4 86bc d62f 433e 64e7 ac3d af42 4bbd
00000290: 5594 debe 12eb bbbc b673 2639 ddf3 01bc
000002a0: 1f55 e23d 7ee3 b73c c3ff 6a3e 52b7 9e3b
000002b0: eac4 4cbd 1839 cd3d 5ce5 763d 2a14 d4bb
000002c0: 88f6 f53d e32f fdbc a2d3 78bc 5b7b 6cbe
000002d0: 1703 263c fea3 cebd 23c3 b3be 214a 4bbd
000002e0: c3eb 883d 7732 443e bfa6 863d 500c e33e
000002f0: 0731 17bd 956b 89bd 4ebf adbd b8a1 1f3e
00000300: fe70 f6bd 3f76 6ebd df47 e0bd 91a1 3d3e
00000310: d4a0 b83e 19bc 383e 4648 913e 82d8 003e
00000320: 812c 11be 2389 6c3c cd62 203d 155e 36be
00000330: fd64 473d 7c98 1e3e d0b0 153e 7c81 cc3d
00000340: ea84 c73b 9bfa 22be 62ab c03d 9c7f fabd
00000350: f49d 16bd f45c 3f3e 3cfa 1d3c a1d4 d73d
00000360: 27d7 eebe 9e1d 78be 485a 3c3d 3f24 593e
00000370: 6410 f9bd edde 963c 29eb 9fbc 14a4 3d3e
00000380: 2404 8f3d fbb2 1bbd 175e 163e 1810 9dbe
00000390: 79da ec3e 004d 0abe c313 823d 72bc 233e
000003a0: e9ee 34be 617f 3b3e a791 fe3d 65f0 1abd
000003b0: 70f8 943d 6295 6f3e 0e14 4ebe 200b 4fbe
000003c0: 5007 b0be 369a 5b3e 40f1 3f3e 5107 72bd
000003d0: 99b9 b6bc a29a 33be dffa 3ebe 6001 dfbc
000003e0: 751e 5c3e f06d 663d ac72 a43d c9b8 bc3d
000003f0: 1b96 09bf e3dc e73e ccb1 463e d254 263d

context_transformer_0/ffn_layer_2/intermediate_dense/einsum/Einsum;context_transformer_0/ffn_layer_2/intermediate_dense/Relu;context_transformer_0/ffn_layer_2/intermediate_dense/add f4 [32]
-0.12109059 0.028909104 -0.15834954 0.008337463 -0.09552834 -0.092140846 0.033160713 -0.067221686
0.030489374 -0.13413899 -0.36687264 0.24131602 0.0029608062 0.05021513 -0.16437222 -0.21712202
0.038456347 0.18618384 -0.15280895 -0.05163819 -0.13694513 -0.09761196 -0.26084954 -0.13009256
-0.24233064 -0.011878439 0.07800991 -0.09798626 -0.018353729 -0.07755018 -0.18775246 -0.16441584
00000000: 58fe f7bd c9d2 ec3c 6226 22be db99 083c
00000010: 5da4 c3bd 57b4 bcbd 87d3 073d 86ab 89bd
00000020: dac4 f93c bb5b 09be bbd6 bbbe 8c1b 773e
00000030: 160a 423b 61ae 4d3d 3151 28be 3c55 5ebe
00000040: 6784 1d3d faa6 3e3e f379 1cbe 9182 53bd
00000050: 583b 0cbe c7e8 c7bd 128e 85be fc36 05be
00000060: 8625 78be c99d 42bc a9c3 9f3d 05ad c8bd
00000070: 8f5a 96bc a1d2 9ebd 2e42 40be a05c 28be

context_transformer_0/ffn_layer_1/norm/mul;context_transformer_0/ffn_layer_1/norm/add;context_transformer_0/ffn_layer_2/intermediate_dense/einsum/Einsum;context_transformer_0/ffn_layer_2/intermediate_dense/Relu;context_transformer_0/ffn_layer_2/intermediate_dense/add f4 [32, 32]
-0.18475579 0.080061115 -0.03361933 0.13954109 0.1309873 -0.12718876 0.1354842 -0.06345228
0.13564901 0.0098926425 0.09237597 0.016538136 -0.19184203 0.025757838 0.15141442 -0.20617773
-0.010580941 -0.1740746 -0.15344198 0.01865207 0.15804811 -0.034350235 0.028760096 0.05922242
-0.39312002 -0.083133645 -0.15791647 0.09447347 0.13652383 0.3102003 0.4102244 -0.020597998
-0.09587914 0.2944429 -0.2964742 0.17790638 0.20573603 -0.009849112 -0.45186934 0.41364416
-0.14586559 0.013014176 0.012544345 -0.16095807 0.18426411 -0.1612344 -0.13284568 -0.020224469
-0.13745251 0.26238462 0.024339782 -0.009465049 0.061986104 0.21602206 0.12921916 0.13707097
-0.036738332 -0.053801987 -0.06087704 0.058349166 0.19444017 0.09535271 0.15193798 -0.029228305
-0.038337465 0.26516694 0.07273636 -0.19247177 0.21777803 0.080516785 0.43164134 0.1839197
0.3085667 0.18968798 0.17955945 0.022661112 0.21609402 -0.10112511 0.0320908 0.06865997
-0.19099253 0.085464135 0.034798734 0.45596117 0.075355045 -0.0010584199 -0.17468745 0.22617003
-0.11157111 0.02031725 0.079432115 -0.0724947 0.15382384 0.078177065 0.056638684 -0.20356013
0.04569991 -0.028599005 -0.063967556 -0.15614165 -0.241578 -0.15651038 -0.011194524 -0.043801233
0.21052943 -0.09305529 0.3695313 -0.17770018 -0.22826898 0.118684165 -0.2814831 -0.2409559
0.0039975583 0.05784163 -0.04490479 -0.07353794 0.42931056 -0.14168473 0.17573144 0.08129054
-0.14425828 0.09713742 -0.18303794 0.18256606 0.18869561 0.01949909 -0.18545039 -0.10378599
0.088876225 0.13075335 0.24336305 -0.2593443 0.035500433 -0.09468735 0.071561724 0.1295234
0.062592335 0.23173149 -0.09070235 -0.0897151 0.086057045 0.030082677 0.012381328 0.21223739
-0.059039034 0.11292967 0.15484035 0.040851247 0.12391473 -0.16247562 0.103997216 -0.2071624
0.25458717 0.06731198 0.0037139421 0.14703466 -0.35495716 0.18873961 -0.036790665 0.011916926
0.25649405 0.04995379 0.020963015 -0.062102813 -0.025347548 -0.12330844 -0.2738851 0.05066524
-0.150196 0.25931105 0.25931367 -0.07243548 -0.32796916 -0.06407864 0.15902159 0.06808947
0.1741505 -0.08649768 0.14747912 -0.034632638 0.008897159 -0.32212847 -0.1174404 0.07886477
0.109368265 -0.16284569 -0.022151196 0.08249696 -0.1255447 0.37086546 -0.1485357 0.051386997
0.30123785 0.06207178 -0.31200063 -0.29591197 0.038465366 0.06315906 -0.08316265 -0.14887115
-0.08510558 0.040129367 0.07482659 0.044579554 -0.054037865 0.20872994 -0.28804648 -0.282739
0.06276379 -0.1031958 -0.14530043 0.0408842 0.15754835 -0.12629297 -0.054319944 -0.02281398
0.24037892 -0.061421525 -0.19342144 -0.10019899 0.1373604 0.17684513 0.37045264 0.15847024
0.16962205 0.1713448 -0.11862555 -0.16955185 0.28862384 -0.44940478 0.073346816 0.07587783
-0.064734094 -0.19199756 0.27988908 0.29911938 -0.031803798 0.3910614 0.19184437 -0.26763397
-0.2389387 -0.108334005 0.107743375 -0.1340696 0.030375667 -0.09965249 -0.061305095 -0.12564674
0.31164122 0.06594682 -0.08104379 0.20087706 -0.03040869 0.2852147 -0.10161602 -0.0051691495
00000000: 9f30 3dbe 15f7 a33d 6cb4 09bd dce3 0e3e
00000010: 8921 063e c53d 02be 5fbc 0a3e 45f3 81bd
00000020: 93e7 0a3e c014 223c 9d2f bd3d fc7a 873c
00000030: 3d72 44be 1a02 d33c 620c 1b3e 4120 53be
00000040: af5b 2dbc 9d40 32be e51f 1dbe 3acc 983c
00000050: 5dd7 213e d5b2 0cbd 4b9a eb3c 3593 723d
00000060: 0747 c9be f941 aabd dbb4 21be 4e7b c13d
00000070: e7cc 0b3e 93d2 9e3e ef08 d23e 22bd a8bc
00000080: 485c c4bd 38c1 963e 77cb 97be 172d 363e
00000090: 77ac 523e 2b5e 21bc 6b5b e7be 2bc9 d33e
000000a0: ca5d 15be 6939 553c cc86 4d3c 31d2 24be
000000b0: bbaf 3c3e a11a 25be b308 08be c9ad a5bc
000000c0: 5ac0 0cbe 4757 863e 3964 c73c 4b13 1bbc
000000d0: 24e5 7d3d e334 5d3e 0752 043e 555c 0c3e
000000e0: ef7a 16bd 795f 5cbd 345a 79bd 89ff 6e3d
000000f0: 531b 473e 4848 c33d a195 1b3e 3370 efbc
00000100: bf07 1dbd f6c3 873e cdf6 943d 5217 45be
00000110: 3401 5f3e fce5 a43d 1800 dd3e 7255 3c3e
00000120: 74fc 9d3e 913d 423e 6fde 373e cca3 b93c
00000130: c047 5d3e af1a cfbd a571 033d 999d 8c3d
00000140: 8c93 43be d207 af3d 1e89 0e3d be73 e93e
00000150: bf53 9a3d aeba 8aba 44e1 32be 1e99 673e
00000160: 657f e4bd 5d70 a63c 4ead a23d 1a78 94bd
00000170: ff83 1d3e 4c1b a03d f7fd 673d 1172 50be
00000180: d42f 3b3d 7648 eabc 6c01 83bd 99e3 1fbe
00000190: 3960 77be 4244 20be 3d69 37bc ec68 33bd
000001a0: 0795 573e c693 bebd 3533 bd3e 09f7 35be
000001b0: 58bf 69be af10 f33d 8e1e 90be 25bd 76be
000001c0: f3fd 823b 58eb 6c3d 16ee 37bd 0f9b 96bd
000001d0: 98ce db3e cd15 11be f1f2 333e a87b a63d
000001e0: 71b8 13be fcef c63d 4c6e 3bbe 99f2 3a3e
000001f0: 6c39 413e 8ebc 9f3c b5e6 3dbe c08d d4bd
00000200: bd04 b63d 35e4 053e 2a34 793e c7c8 84be
00000210: e768 113d 71eb c1bd f48e 923d c8a1 043e
00000220: 6930 803d 054b 6d3e 27c2 b9bd 8dbc b7bd
00000230: ad3e b03d f26f f63c 0edb 4a3c c254 593e
00000240: ead2 71bd ac47 e73d 788e 1e3e a353 273d
00000250: 02c7 fd3d 0260 26be 7efc d43d 6122 54be
00000260: 4059 823e ddda 893d 9c65 733b 4190 163e
00000270: f2bc b5be f544 413e cfb1 16bd 363f 433c
00000280: 3053 833e 589c 4c3d a1ba ab3c 855f 7ebd
00000290: a9a5 cfbc 2389 fcbd ab3a 8cbe 5b86 4f3d
000002a0: fbcc 19be 6bc4 843e c3c4 843e 0e59 94bd
000002b0: 93eb a7be a93b 83bd 8ed6 223e 7e72 8b3d
000002c0: 8254 323e b225 b1bd c404 173e f4da 0dbd
000002d0: 64c5 113c 06ee a4be 9884 f0bd da83 a13d
000002e0: 78fc df3d 05c1 26be 6d76 b5bc 2bf4 a83d
000002f0: ca8e 00be 14e2 bd3e be19 18be 2c7b 523d
00000300: d93b 9a3e fb3e 7e3d 8cbe 9fbe c681 97be
00000310: dc8d 1d3d 8a59 813d 2e51 aabd ae71 18be
00000320: d64b aebd b15e 243d af3e 993d 0d99 363d
00000330: cf56 5dbd 4dbd 553e d47a 93be 2bc3 90be
00000340: 4d8a 803d 5258 d3bd a3c9 14be 3176 273d
00000350: 5b54 213e f252 01be 977e 5ebd 62e4 babc
00000360: e425 763e 2395 7bbd 4510 46be 2135 cdbd
00000370: 34a8 0c3e e416 353e f8ab bd3e 0646 223e
00000380: 67b1 2d3e 0375 2f3e f4f1 f2bd 009f 2dbe
00000390: 81c6 933e 6218 e6be db36 963d d665 9b3d
000003a0: 4f93 84bd 029b 44be 9f4d 8f3e 2d26 993e
000003b0: b344 02bd 3339 c83e da72 443e 5207 89be
000003c0: 59ac 74be 38de ddbd 8fa8 dc3d 8b49 09be
000003d0: 64d6 f83c 9b16 ccbd 0d1b 7bbd 8aa9 00be
000003e0: 708f 9f3e 200f 873d 49fa a5bd b7b2 4d3e
000003f0: a51b f9bc a907 923e 0f1c d0bd f861 a9bb

context_transformer_0/ffn_layer_3/intermediate_dense/einsum/Einsum;context_transformer_0/ffn_layer_3/intermediate_dense/Relu;context_transformer_0/ffn_layer_3/intermediate_dense/add f4 [32]
-0.025073176 -0.07403877 0.014694533 -0.0031676155 -0.08678166 0.059724372 -0.15855502 0.008410086
-0.021567764 -0.14241381 -0.022795936 -0.14595613 0.10420714 -0.12680016 0.09302901 0.085667275
-0.03799074 -0.06526001 0.054516982 0.045671932 -0.27234158 -0.26819476 -0.1239499 -0.051340904
-0.043774404 -0.09045724 -0.07801555 -0.07565342 -0.1589872 -0.1525846 -0.2096513 -0.09575747
00000000: 4366 cdbc a3a1 97bd 57c1 703c c597 4fbb
00000010: 95ba b1bd 8ba1 743d 3f5c 22be 75ca 093c
00000020: e1ae b0bc edd4 11be 8bbe babc 8675 15be
00000030: 8e6a d53d e7d7 01be fe85 be3d 5372 af3d
00000040: 2e9c 1bbd 0aa7 85bd 334d 5f3d 7e12 3b3d
00000050: 5b70 8bbe d350 89be 72d9 fdbd d74a 52bd
00000060: ca4c 33bd a541 b9bd 9ec6 9fbd 2ef0 9abd
00000070: 8acd 22be 233f 1cbe d5ae 56be 7e1c c4bd
